n_row_chess/best_policy.model (torch, 446589 bytes, 15 tensors)

conv1.weight f4 [32, 4, 3, 3]
0.01314893 0.006005511 -0.0038836435 0.020706492 0.0171536 -0.003954292 0.021514773 0.012522238
-0.012076181 -0.010936867 0.0020627272 0.006376493 -0.015995195 -0.006874477 0.007103641 -0.023525985
-0.0077221775 0.011343196 0.0030002103 0.007607801 0.0036469244 0.009048165 0.010313672 0.010206625
0.0119162835 0.018766781 0.019960804 -0.15315218 -0.23671442 -0.16519512 -0.18055378 -0.26405802
-0.22456259 -0.23494755 -0.12004613 -0.23611628 -0.30132055 -0.304736 -0.3033433 -0.3027984
-0.2880092 -0.30836868 -0.30132747 -0.2948386 -0.3056834 0.2735662 0.268514 0.26768786
0.27395773 0.26951376 0.26778728 0.2810945 0.26833755 0.2669233 -0.019359395 -0.0059197852
-0.016530119 0.002740427 0.0063616126 -0.0030587502 -0.011467534 -0.00775892 -0.02398686 0.022945724
-0.041233983 0.06498274 0.08991328 -0.009217237 0.05550398 0.0020019494 0.14509101 0.11533947
0.24323452 0.22369595 0.16948588 0.2249761 0.214323 0.18032072 0.23023854 0.23406737
0.14519335 -0.26747054 -0.22171366 -0.15645109 -0.26665252 -0.22045551 -0.14904335 -0.2109314
-0.19425826 -0.12231618 -0.06468555 -0.042873103 -0.0046142144 -0.06790084 -0.04161927 -0.0023850945
-0.030218568 -0.011700089 0.034811355 0.049292643 0.025709575 0.0119823525 0.08929995 0.035417516
-0.059928313 0.04432375 0.031023601 0.0032012232 1.5605454e-05 -5.8939426e-05 -4.2775573e-06 6.321813e-06
-4.3820284e-05 -4.021467e-05 6.851824e-06 -4.9220238e-05 -1.2676685e-05 -1.4408502e-06 -1.5842506e-05 5.272051e-05
-5.398481e-06 -9.651048e-06 4.0692732e-05 -4.795409e-06 -6.139059e-06 -1.815171e-05 -7.3257916e-06 -7.3484534e-06
1.276655e-05 -7.849286e-06 6.708205e-06 5.188671e-06 -5.649856e-06 5.833679e-06 -1.571274e-06 0.027609771
-0.21711722 -0.17183916 -0.17096248 -0.07693116 -0.19407019 -0.17097841 -0.16863775 -0.23065424
-0.009864303 -0.008625933 -0.010529134 -0.010783591 -0.009751834 -0.012862516 -0.007359495 -0.004943162
-0.008599599 0.013820595 0.014662679 0.014216021 0.015132944 0.014728554 0.014188643 0.011137593
0.013372089 0.011196883 4.2634947e-06 -1.2642471e-05 3.457074e-06 4.4728913e-06 -1.997723e-05 2.9973648e-06
1.1726932e-05 -1.9280378e-05 -8.448107e-06 -0.016179303 -0.026626725 -0.105425194 -0.1492711 -0.21725468
-0.20643991 -0.1699606 -0.2352721 -0.14274876 -0.25226438 -0.2804511 -0.24950178 -0.28902155
-0.29963794 -0.28889996 -0.25805447 -0.28603142 -0.2564325 0.26075786 0.2198092 0.22103322
0.23579435 0.2356557 0.23092465 0.24962892 0.2358101 0.23753355 -0.05490117 -0.112233676
-0.06409356 -0.10555915 -0.08289219 -0.07982413 -0.05219921 -0.071700186 -0.0520326 0.04780159
0.0021635466 0.09280063 0.0079416055 0.14392969 0.04979462 0.09950528 0.06727504 0.04306745
-0.24156424 -0.25305825 -0.2073598 -0.26773873 -0.25839278 -0.22600944 -0.21889581 -0.22210193
-0.20535342 0.2244268 0.23264144 0.21944465 0.22050273 0.19153066 0.16542862 0.18983218
0.17340583 0.13450348 0.049115434 0.06289296 0.044407766 0.049025197 0.02144627 -0.016110122
-0.0013035281 0.0009401462 -0.05387065 0.008116292 0.0835468 0.06203913 0.093813166 0.056342497
0.040154215 -0.07961195 -0.05824445 0.00844966 0.071293496 0.09007209 0.09080299 0.08542358
00000000: 9c6e 573c e1c9 c43b ba84 7ebb a9a0 a93c
00000010: b585 8c3c 0193 81bb c03f b03c 132a 4d3c
00000020: 2ddb 45bc 8c30 33bc d22e 073b e6f1 d03b
00000030: 5b08 83bc 4b43 e1bb a9c5 e83b 91b9 c0bc
00000040: 520a fdbb d0d8 393c 2d9f 443b dc4a f93b
00000050: 3d01 6f3b c13e 143c adfa 283c b039 273c
00000060: 843c 433c cbbc 993c d784 a33c edd3 1cbe
00000070: 4465 72be e928 29be 17e3 38be 9d32 87be
00000080: bcf3 65be 1796 70be bfda f5bd 77c8 71be
00000090: b046 9abe 5b06 9cbe d04f 9bbe 6408 9bbe
000000a0: f175 93be 80e2 9dbe 9847 9abe 16f5 96be
000000b0: 8982 9cbe de10 8c3e ab7a 893e 620e 893e
000000c0: 3044 8c3e b5fd 893e 6a1b 893e 9eeb 8f3e
000000d0: 8a63 893e 2caa 883e 9897 9ebc c2fa c1bb
000000e0: 2c6a 87bc bc98 333b 1375 d03b 5075 48bb
000000f0: 53e2 3bbc 8a3e febb 1780 c4bc acf8 bb3c
00000100: f7e4 28bd ac15 853d 7424 b83d e503 17bc
00000110: 2458 633d 2333 033b bd92 143e 1a37 ec3d
00000120: 7812 793e 8d10 653e b58d 2d3e 2260 663e
00000130: 7d77 5b3e ffa5 383e a7c3 6b3e 5baf 6f3e
00000140: 91ad 143e e6f1 88be e808 63be b734 20be
00000150: ae86 88be 17bf 61be d29e 18be 67fe 57be
00000160: a3eb 46be e880 fabd dc79 84bd b59b 2fbd
00000170: d632 97bb 980f 8bbd f878 2abd 3f4f 1cbb
00000180: ee8c f7bc bbb1 3fbc 5a96 0e3d 15e7 493d
00000190: e39c d23c a151 443c e4e2 b63d f511 113d
000001a0: 6477 75bd d28c 353d 3525 fe3c 9dcb 513b
000001b0: 75e8 8237 ba35 77b8 f087 8fb6 f61f d436
000001c0: accb 37b8 2cac 28b8 b8e8 e536 d471 4eb8
000001d0: f3ad 54b7 3c63 c1b5 86e5 84b7 3720 5d38
000001e0: 9924 b5b6 efea 21b7 7dad 2a38 40e8 a0b6
000001f0: 1efe cdb6 8044 98b7 12d0 f5b6 bc92 f6b6
00000200: ea2f 5637 6db0 03b7 0b17 e136 581a ae36
00000210: e593 bdb6 ecbe c336 90e4 d2b5 e32d e23c
00000220: fa53 5ebe 9bf6 2fbe ca10 2fbe 168e 9dbd
00000230: 56ba 46be f714 2fbe 60af 2cbe a030 6cbe
00000240: e39d 21bc c953 0dbc 6482 2cbc a9ad 30bc
00000250: 28c6 1fbc 4dbd 52bc eb27 f1bb 40fa a1bb
00000260: 55e5 0cbc c76f 623c bc3b 703c 50ea 683c
00000270: 2bf0 773c 0850 713c 7b77 683c 737a 363c
00000280: 9b16 5b3c 2273 373c 240f 8f36 001b 54b7
00000290: 1400 6836 d815 9636 c694 a7b7 5626 4936
000002a0: cabe 4437 4cbc a1b7 58bc 0db7 758a 84bc
000002b0: 4a20 dabc 2ae9 d7bd 86da 18be 0378 5ebe
000002c0: fc64 53be 270a 2ebe 2beb 70be bb2c 12be
000002d0: cc28 81be 4997 8fbe 657d 7fbe a2fa 93be
000002e0: 256a 99be b2ea 93be b71f 84be b672 92be
000002f0: 1f4b 83be 0e82 853e aa15 613e 8856 623e
00000300: 1374 713e ba4f 713e 8377 6c3e b99e 7f3e
00000310: 3478 713e ff3b 733e 0de0 60bd c5da e5bd
00000320: 7c43 83bd 652f d8bd 61c3 a9bd d57a a3bd
00000330: d7ce 55bd 8cd7 92bd 2320 55bd 9acb 433d
00000340: 4aca 0d3b 420e be3d 821d 023c 4e62 133e
00000350: 72f5 4b3d 6dc9 cb3d 7fc7 893d 7f67 303d
00000360: 9e5c 77be da90 81be 2156 54be 0d15 89be
00000370: 0f4c 84be 056f 67be 3926 60be b06e 63be
00000380: 2b48 52be 24d0 653e 8f39 6e3e 19b6 603e
00000390: 78cb 613e 9d20 443e 1f66 293e 5e63 423e
000003a0: 4c91 313e 48bb 093e 442d 493d 06ce 803d
000003b0: ebe4 353d a5ce 483d 17b0 af3c 60f9 83bc
000003c0: 25db aaba 2574 763a 78a7 5cbd 32fa 043c
000003d0: 961a ab3d be1c 7e3d 1e21 c03d 64c7 663d
000003e0: bf78 243d 970b a3bd bb91 6ebd 7170 0a3c
000003f0: 5302 923d b777 b83d ebf6 b93d 8ff2 ae3d

conv1.bias f4 [32]
0.040198155 -0.27903488 -0.005591036 0.14574403 0.089476295 -0.27939907 0.011263277 0.09097201
-0.35745242 -0.23501426 -0.23192984 -0.18783565 -0.120030515 0.04514954 0.26832372 -0.008067271
0.05518718 -0.2817604 -0.3838717 -0.07530341 -0.034398705 -0.32797995 0.27025744 -0.31823328
0.16829108 0.018101363 -0.2534164 -0.17282489 0.062374815 -0.30755287 0.21032764 -0.14202556
00000000: d2a6 243d a9dd 8ebe 0235 b7bb ec3d 153e
00000010: 593f b73d 650d 8fbe 9c89 383c 884f ba3d
00000020: 0104 b7be 94a7 70be 047f 6dbe fd57 40be
00000030: 8fd2 f5bd b9ee 383d ba61 893e 962c 04bc
00000040: f40b 623d e642 90be d58a c4be ad38 9abd
00000050: a8e5 0cbd fdec a7be 2f5f 8a3e 79ef a2be
00000060: 7f54 2c3e 4f49 943c cbbf 81be 02f9 30be
00000070: bc7c 7f3d 9277 9dbe 2160 573e 266f 11be

conv2.weight f4 [64, 32, 3, 3]
-0.0010705289 -0.0017973379 -0.0011553522 -0.0019304355 -0.003458718 -0.002412951 -0.0016486783 -0.0022655467
-0.0015707633 -1.6621374e-06 -1.5887306e-06 1.18203e-06 -1.3250657e-06 -1.1871099e-06 1.3324042e-06 1.3352269e-06
1.1611793e-06 -7.2022027e-07 -8.2332845e-06 -1.0502679e-05 -8.301272e-06 -9.116615e-06 6.262284e-07 -9.497544e-06
-1.0243491e-05 -6.5880695e-06 -1.04776755e-05 -0.002851983 -0.0041968855 -0.0029594584 -0.0044266377 -0.005557903
-0.004958219 -0.0034280636 -0.0048769466 -0.0036675362 -8.1992886e-07 8.106131e-07 -5.9067272e-08 -4.2309318e-07
-6.0938777e-07 7.9571106e-07 -1.8302389e-07 -9.775137e-08 -1.6740772e-07 5.483009e-07 5.18077e-07 -4.7269035e-07
-2.6576893e-07 7.2544275e-08 -4.2468417e-07 3.1277884e-07 -1.3117962e-08 -2.2624647e-07 5.526152e-07 -2.2495162e-06
-1.7002716e-06 -1.9555156e-07 -2.4794508e-06 -2.1346314e-06 1.6488814e-06 5.7801907e-07 1.6846313e-06 -3.8748536e-07
-5.512404e-07 5.2371576e-07 4.4529992e-07 1.0613085e-07 -4.3387647e-07 6.1996936e-08 -2.3189911e-07 2.7188413e-08
6.3210964e-06 1.9839447e-06 3.9018933e-06 4.3111513e-06 -5.7320085e-06 -3.0893273e-06 6.2085414e-06 1.6452164e-07
2.7449744e-06 2.0119758e-06 2.3542746e-06 1.3158034e-06 1.7509901e-06 1.9750398e-06 1.3218386e-06 2.097642e-06
1.5250521e-06 -2.2868176e-06 -1.9488954e-05 -0.00017706843 -7.5844815e-05 -0.0001787247 -0.00048769102 -0.00029663995
-6.0392616e-05 -0.0002649714 -0.00014871637 1.0485785e-05 2.3504399e-05 8.057505e-06 2.8371302e-05 1.0639679e-05
2.746001e-05 2.7149625e-05 2.1035306e-05 2.6960215e-05 1.0960461e-08 -1.8671888e-07 1.07210596e-07 5.0652165e-08
-2.0787475e-07 -2.4910412e-07 4.308527e-08 -0.000919094 3.799574e-08 -0.0013645105 -0.0022528688 -0.0015890046
-0.002541513 -0.004041208 -0.0025986955 -0.0017211593 -0.0030791205 -0.0022193887 -0.0050903535 -0.0072938157
-0.005799102 -0.006205152 -0.009280782 -0.007798328 -0.0049151294 -0.0065192184 -0.0065166634 -8.189701e-06
5.4913457e-06 -2.9695193e-06 3.4937202e-06 2.1762831e-05 1.1055271e-05 -5.7922234e-06 7.9174e-06 -2.5816935e-06
-6.933772e-07 2.1169117e-06 -3.4177403e-06 3.5309786e-06 6.01753e-06 3.7320376e-07 -7.7123957e-07 2.3144967e-06
-3.3820975e-06 1.7636403e-06 1.5091599e-06 1.3133123e-06 1.7527974e-06 1.2693291e-06 9.337251e-07 -1.4954192e-06
2.0818442e-07 -1.4650166e-06 2.93097e-06 3.2804865e-06 3.8050798e-06 3.7149196e-06 1.9575712e-06 3.2153578e-06
-6.9812853e-07 3.2698802e-06 1.5220978e-06 -1.1637087e-06 -8.178274e-07 -3.1130662e-06 -2.1181659e-10 -1.112134e-06
-3.0851625e-06 -3.263701e-06 -3.2384992e-06 2.4562792e-06 -8.325527e-06 5.711145e-06 -6.1095784e-06 1.0486881e-05
2.6284013e-05 1.3103577e-05 6.386641e-07 1.7780416e-05 2.0921939e-06 -0.00021738758 -0.00053705514 -0.00026991253
-0.0006176219 -0.0012058594 -0.0006696484 -0.00032856737 -0.0007782935 -0.0003984302 -0.008160864 -0.011156455
-0.008820186 -0.009331602 -0.012727557 -0.011539294 -0.008615871 -0.012313601 -0.0105351545 1.39722215e-05
-8.9448076e-05 -2.1150747e-05 -8.078691e-05 -0.0003291906 -0.000202629 -8.841625e-06 -0.0001693211 -7.095848e-05
-0.0035555274 -0.0056080353 -0.0047917776 -0.0048216856 -0.00687985 -0.0059792455 -0.004177481 -0.0059490423
-0.0045528123 7.755806e-07 -7.275533e-07 -5.239661e-07 4.8249376e-07 -4.1645703e-07 -6.2537003e-07 6.3199127e-07
-6.270146e-07 -4.704784e-07 -0.000205115 -0.0005320264 -0.00027718203 -0.00062148913 -0.0012376045 -0.0008099673
-0.00036585145 -0.0008671691 -0.00047917967 -2.9628675e-06 -5.2519617e-06 -3.911715e-06 -5.32002e-06 -2.5697677e-06
-5.138137e-06 -3.6512631e-06 -5.0820786e-06 -4.133246e-06 -8.8312134e-07 2.160656e-07 -6.8250387e-07 -3.2557367e-07
00000000: fd50 8cba a794 ebba 306f 97ba ab06 fdba
00000010: a9ab 62bb 9a22 1ebb 7718 d8ba 9179 14bb
00000020: 12e2 cdba 9b16 dfb5 5e3c d5b5 3ea6 9e35
00000030: e9d8 b1b5 c954 9fb5 0fd5 b235 0c36 b335
00000040: d1d9 9b35 2955 41b5 b021 0ab7 aa34 30b7
00000050: b145 0bb7 90f3 18b7 171a 2835 a457 1fb7
00000060: 75db 2bb7 160f ddb6 46c9 2fb7 56e8 3abb
00000070: 0786 89bb 79f3 41bb 540d 91bb 121f b6bb
00000080: 8e78 a2bb 5da9 60bb cbce 9fbb 0c5b 70bb
00000090: 1519 5cb5 e898 5935 27b1 7db3 7c25 e3b4
000000a0: cf94 23b5 d998 5535 3985 44b4 62eb d1b3
000000b0: afc0 33b4 f32e 1335 fb11 0b35 11c6 fdb4
000000c0: 01af 8eb4 a3c9 9b33 2600 e4b4 ffeb a734
000000d0: 685d 61b2 28ee 72b4 6d57 1435 65f6 16b6
000000e0: e334 e4b5 cef8 51b4 a464 26b6 b040 0fb6
000000f0: 224f dd35 2b29 1b35 7e1b e235 9507 d0b4
00000100: f4f8 13b5 7995 0c35 8e11 ef34 0dea e333
00000110: 87ef e8b4 2d23 8533 f1ff 78b4 f48b e932
00000120: ce19 d436 e923 0536 02ed 8236 82a8 9036
00000130: 9455 c0b6 3d52 4fb6 f752 d036 5da7 3034
00000140: 4d36 3836 7b05 0736 21fe 1d36 a99a b035
00000150: 9003 eb35 ed8a 0436 076a b135 37c5 0c36
00000160: 64b0 cc35 3a77 19b6 367c a3b7 72ab 39b9
00000170: e00e 9fb8 0c68 3bb9 c8b0 ffb9 5786 9bb9
00000180: 144e 7db8 dceb 8ab9 bff0 1bb9 1bec 2f37
00000190: 502b c537 b82e 0737 e8fe ed37 1381 3237
000001a0: ec59 e637 60bf e337 fa74 b037 9f28 e237
000001b0: 9e4c 3c32 e57c 48b4 a63b e633 a58c 5933
000001c0: 2d34 5fb4 9cbc 85b4 c10c 3933 5bef 70ba
000001d0: c230 2333 60d9 b2ba dea4 13bb 2646 d0ba
000001e0: 838f 26bb 1c6c 84bb e04e 2abb 8698 e1ba
000001f0: 12cb 49bb 2a73 11bb fbcc a6bb f600 efbb
00000200: 6506 bebb 9654 cbbb 6c0e 18bc 1e89 ffbb
00000210: 180f a1bb 2b9f d5bb bc89 d5bb 7f66 09b7
00000220: 4d42 b836 f447 47b6 a875 6a36 538f b637
00000230: 077a 3937 d25a c2b6 f9d4 0437 2841 2db6
00000240: 8520 3ab5 4410 0e36 555c 65b6 c0f5 6c36
00000250: 30ea c936 bc5c c834 2e07 4fb5 c052 1b36
00000260: fef7 62b6 38b6 ec35 578e ca35 1145 b035
00000270: a941 eb35 d15d aa35 1aa5 7a35 36b6 c8b5
00000280: 4c89 5f34 96a1 c4b5 aeb1 4436 5426 5c36
00000290: c65a 7f36 d54d 7936 d15e 0336 6dc7 5736
000002a0: 0767 3bb5 1d70 5b36 e24a cc35 ba30 9cb5
000002b0: ac88 5bb5 12ea 50b6 12e5 68af a244 95b5
000002c0: b00a 4fb6 f505 5bb6 fe54 59b6 8ed6 2436
000002d0: dead 0bb7 5da2 bf36 e100 cdb6 d0f0 2f37
000002e0: 7d7c dc37 6fd7 5b37 aa70 2b35 2727 9537
000002f0: 9e67 0c36 89f2 63b9 29c9 0cba 0c83 8db9
00000300: e7e7 21ba ed0d 9eba 588b 2fba 9143 acb9
00000310: 6506 4cba 65e4 d0b9 25b5 05bc 90c9 36bc
00000320: 8b82 10bc 93e3 18bc 3e87 50bc 4f0f 3dbc
00000330: 9529 0dbc fcbe 49bc a49b 2cbc 3c6a 6a37
00000340: 1296 bbb8 e26c b1b7 246c a9b8 3797 acb9
00000350: cf78 54b9 7d56 14b7 c98b 31b9 8bcf 94b8
00000360: da03 69bb 9cc3 b7bb 5804 9dbb 3bff 9dbb
00000370: 5d70 e1bb 8ced c3bb 40e3 88bb 2ff0 c2bb
00000380: c22f 95bb 7e31 5035 154d 43b5 ada6 0cb5
00000390: b884 0135 6b95 dfb4 1adf 27b5 1ca6 2935
000003a0: 1d50 28b5 0f96 fcb4 2314 57b9 b077 0bba
000003b0: be52 91b9 6eeb 22ba 1e37 a2ba fc53 54ba
000003c0: c0cf bfb9 bc52 63ba 683a fbb9 add5 46b6
000003d0: 023a b0b6 6041 83b6 a082 b2b6 4674 2cb6
000003e0: 4368 acb6 3908 75b6 b986 aab6 50b0 8ab6
000003f0: a30f 6db5 a9ff 6734 4f35 37b5 81ca aeb4

conv2.bias f4 [64]
-0.015335655 -0.014325089 0.24252985 -0.11712994 -0.002362056 -0.006925116 0.11274598 0.123328224
0.2468241 -0.15497333 -0.13610542 -0.008383297 0.21552296 -0.0059189536 0.14144109 0.13570853
0.02552953 -0.017017411 0.041905314 0.26197195 -0.13319144 -0.14110577 -0.009902388 -0.071199045
-0.106095314 1.10779665e-05 0.10852245 -0.11386586 -0.0685472 -0.0055311415 -0.00065515237 -0.0025711951
0.09071856 -0.00030372603 -0.15152876 -0.09889737 -0.0071651684 -0.10436018 -0.1700369 -0.16657306
2.6065023e-05 0.1848198 -0.12398687 -0.12025479 6.902837e-06 -4.4709345e-06 0.21377932 -0.1060315
-0.009208327 0.08891076 -0.109092064 -0.13138667 0.2057464 -0.16705215 0.08946546 -0.13834736
0.21975654 -0.152955 0.009670678 -0.120858 -0.12913819 -0.119260475 0.18987487 -0.17291318
00000000: 6642 7bbc c7b3 6abc bf59 783e d2e1 efbd
00000010: b9cc 1abb 15ec e2bb 5de7 e63d 8293 fc3d
00000020: 75bf 7c3e 54b1 1ebe 385f 0bbe 195a 09bc
00000030: 0db2 5c3e c8f3 c1bb efd5 103e 2df7 0a3e
00000040: 4e23 d13c 1968 8bbc e8a4 2b3d 3021 863e
00000050: 5663 08be 087e 10be a03d 22bc ced0 91bd
00000060: 8048 d9bd 81db 3937 0541 de3d 8132 e9bd
00000070: 7962 8cbd 943e b5bb 88be 2bba 7f81 28bb
00000080: a7ca b93d 6b3d 9fb9 5b2a 1bbe b48a cabd
00000090: cac9 eabb caba d5bd 271e 2ebe 2192 2abe
000000a0: 36a6 da37 6741 3d3e d4ec fdbd 2548 f6bd
000000b0: eb9e e736 0905 96b6 f7e8 5a3e 0b27 d9bd
000000c0: 86de 16bc d816 b63d a96b dfbd 3a8a 06be
000000d0: 2faf 523e b80f 2bbe ab39 b73d eeaa 0dbe
000000e0: dc07 613e 3ca0 1cbe c371 1e3c 6684 f7bd
000000f0: cd3c 04be d63e f4bd 8f6e 423e 2710 31be

conv3.weight f4 [128, 64, 3, 3]
2.2824883e-08 -1.9709371e-07 2.669386e-07 -0.00022517914 3.205435e-07 -4.0712084e-07 -0.000719288 1.1520625e-07
-3.8836345e-07 -1.876919e-05 3.646469e-09 1.0975944e-07 -0.0001997135 -2.4591296e-07 -4.253694e-07 5.111276e-07
-3.5118578e-07 -4.3983027e-07 -0.0034503888 -0.015492341 -0.018688543 -0.0008832955 -0.011254307 -0.015138265
-1.9030684e-06 -0.0010297728 -0.003537905 -2.6079299e-05 -2.1736667e-05 -2.1691847e-05 -2.3815051e-05 -9.850996e-06
-2.1918608e-05 -2.4765277e-06 -1.525994e-05 1.150526e-06 -3.9543324e-05 -1.5652776e-07 7.901477e-08 0.000248625
1.5139267e-07 -1.1953216e-07 -0.0011220512 -1.1651443e-07 1.3494122e-07 -0.00032358142 0.00048626272 4.41352e-05
0.0001551836 -1.18105945e-05 2.6422207e-05 0.00012127734 -3.7341703e-08 -1.0497652e-06 -0.012923746 -0.026664853
-0.021149687 -0.013294934 -0.02902863 -0.023271332 -0.003719163 -0.015690459 -0.012090308 -3.219994e-06
5.8584246e-06 -3.982531e-06 1.9515428e-06 1.746902e-05 -1.8527805e-06 -7.896024e-06 -3.982024e-06 -6.773429e-06
4.5960875e-05 -0.0016260127 -0.0028754903 2.248907e-06 -0.000696966 -0.001769178 -4.75329e-06 -2.5413278e-06
5.0317904e-05 9.340141e-06 1.0956395e-05 6.7922065e-06 9.220287e-06 8.956647e-06 7.4545073e-06 -2.4907392e-06
3.841517e-06 -3.7467203e-06 6.973737e-05 0.00025293452 5.3706164e-05 7.759813e-05 0.00024604195 6.403494e-05
-1.598915e-05 2.095145e-05 -1.6113243e-05 1.7787292e-05 -3.047726e-07 4.770886e-08 2.6844187e-05 2.3332634e-08
-3.7905502e-07 1.8718469e-05 2.212882e-07 -4.357203e-07 3.7169747e-07 1.7923858e-06 4.6070254e-06 3.0698512e-08
-1.6251646e-06 -3.2876162e-06 -8.567916e-07 1.1565857e-06 -2.978474e-07 1.5142047e-07 -1.8171846e-08 8.303243e-08
6.690067e-05 -3.260773e-08 -1.2332599e-07 -3.116656e-05 -1.2780645e-06 -5.557547e-07 -0.0012194887 -0.0021601233
-0.0008864615 -0.0022888144 -0.0037223995 -0.0017271651 -0.0009906649 -0.0019175345 -0.00068393163 -0.0004233053
-0.0010257097 -0.00030846134 -0.0010093338 -0.0020300578 -0.00077565777 -0.00027568344 -0.0008099502 -0.00018448943
-6.1303664e-09 1.912047e-09 1.03020646e-07 5.4933007e-08 -8.414381e-08 -3.6852654e-08 -5.880013e-08 -1.0563601e-07
0.0001188181 0.00019377166 -2.906794e-07 -3.604489e-07 0.00016903017 2.6191066e-07 2.684788e-07 -3.9005317e-05
1.4897047e-07 2.2767672e-07 1.1094556e-07 -5.757579e-08 -1.7265784e-05 -1.04812024e-07 1.1165738e-07 2.9287683e-05
3.0666582e-05 -1.7385096e-07 -2.2415266e-05 -0.0027567502 -0.013413054 -0.017301092 -0.0005455994 -0.009425811
-0.01344185 4.5120973e-06 -0.00057102315 -0.002596813 -1.0315066e-07 -1.7510004e-07 1.3525792e-07 1.2117657e-07
-0.00016975762 1.2935269e-07 -1.0367353e-07 -0.001802236 -4.9803748e-05 3.5244264e-07 -9.339702e-08 5.8694854e-07
-7.6087736e-07 -6.3976415e-07 3.5929494e-07 9.189664e-07 1.4320707e-07 5.087113e-07 -0.037289962 -0.06041725
-0.062082883 -0.02948085 -0.0572835 -0.060315277 -0.002047277 -0.029819394 -0.037201148 -0.038859837
-0.060859766 -0.06340402 -0.03245766 -0.058120925 -0.061722282 -0.004343346 -0.0345335 -0.042492058
-0.00048198816 0.00025408037 -1.7665462e-06 -1.3085338e-07 -1.4896266e-07 9.525874e-06 -1.5154153e-07 -1.322652e-07
0.00027382627 -0.000606369 9.101599e-06 9.112349e-05 -0.00016073638 -2.9580457e-05 -6.68196e-06 -4.4298897e-05
1.771542e-05 6.987909e-05 4.332895e-06 -3.1538405e-06 5.7544216e-06 -2.2401116e-06 -1.0928865e-05 3.1150255e-06
7.430745e-06 2.974718e-06 6.253211e-06 -2.1318172e-05 2.7286447e-05 -2.3259203e-05 -1.12735115e-05 4.276605e-05
-1.3274976e-05 -1.121329e-05 -1.0910309e-05 -1.0979767e-05 0.0009968032 -0.00043822668 3.828647e-05 0.00021469063
00000000: 7310 c432 b5a0 53b4 c34f 8f34 111e 6cb9
00000010: 2a17 ac34 4392 dab4 9a8e 3cba 4e67 f733
00000020: 4480 d0b4 8772 9db7 5c95 7a31 e4b4 eb33
00000030: 2f6a 51b9 0506 84b4 535e e4b4 6c34 0935
00000040: 9b8a bcb4 d021 ecb4 eb1f 62bb 96d3 7dbc
00000050: b718 99bc f58c 67ba fc63 38bc 7c06 78bc
00000060: ef6c ffb5 71f9 86ba 32dc 67bb dec4 dab7
00000070: 2357 b6b7 e3f6 b5b7 6fc6 c7b7 b545 25b7
00000080: dadd b7b7 6c32 26b6 7902 80b7 c66b 9a35
00000090: 52db 25b8 0612 28b4 d4ae a933 e259 8239
000000a0: 808e 2234 c058 00b4 ca11 93ba 7c36 fab3
000000b0: 5ce4 1034 5da6 a9b9 14f1 fe39 cf1d 3938
000000c0: c8b8 2239 1e26 46b7 42a5 dd37 4756 fe38
000000d0: a361 20b3 a8e5 8cb5 1fbe 53bc 4070 dabc
000000e0: 1c42 adbc ffd2 59bc 73cd edbc 85a3 bebc
000000f0: 33bd 73bb 4789 80bc 6d16 46bc 1317 58b6
00000100: 7c93 c436 aea1 85b6 40f7 0236 6f8a 9237
00000110: 0ead f8b5 2a79 04b7 539d 85b6 5047 e3b6
00000120: 1dc6 4038 ef1f d5ba b972 3cbb eeeb 1636
00000130: 99b4 36ba c3e3 e7ba 737e 9fb6 ae8b 2ab6
00000140: 700c 5338 9ab3 1c37 5cd1 3737 9ce8 e336
00000150: d5b0 1a37 8244 1637 bb21 fa36 9326 27b6
00000160: 61e6 8036 2a70 7bb6 f73f 9238 4c9c 8439
00000170: 8e42 6138 2ebc a238 31ff 8039 7f4a 8638
00000180: 7020 86b7 e5c0 af37 ed2a 87b7 eb35 9537
00000190: a19f a3b4 72e8 4c33 742f e137 016d c832
000001a0: ed80 cbb4 9b05 9d37 3d9b 6d34 f1ec e9b4
000001b0: b68d c734 e891 f035 0c96 9a36 5fd9 0333
000001c0: 3b20 dab5 d1a0 5cb6 45fe 65b5 fb3b 9b35
000001d0: d6e7 9fb4 2496 2234 5018 9cb2 904f b233
000001e0: 064d 8c38 940c 0cb3 976b 04b4 d7b8 02b8
000001f0: f689 abb5 2c2f 15b5 40d7 9fba db90 0dbb
00000200: 6d61 68ba efff 15bb 80f3 73bb 0b62 e2ba
00000210: 33d9 81ba c855 fbba e049 33ba 13ef ddb9
00000220: 1b71 86ba fbb8 a1b9 9f4b 84ba b80a 05bb
00000230: 8355 4bba 9b89 90b9 d652 54ba 8173 41b9
00000240: 46a3 d2b1 1665 0331 333c dd33 7bef 6b33
00000250: 8cb2 b4b3 ec47 1eb3 6d8b 7cb3 03da e2b3
00000260: fb2d f938 2f2f 4b39 ac0e 9cb4 b883 c1b4
00000270: b13d 3139 ba9c 8c34 7223 9034 a499 23b8
00000280: b1f4 1f34 4d77 7434 f740 ee33 4049 77b3
00000290: fdd5 90b7 0515 e1b3 4bc8 ef33 d2ae f537
000002a0: fe9f 0038 caab 3ab4 6b08 bcb7 98aa 34bb
000002b0: 6dc2 5bbc 05bb 8dbc 8e06 0fba b76e 1abc
000002c0: 353b 5cbc 9f66 9736 b7b0 15ba 4b2f 2abb
000002d0: ad83 ddb3 2203 3cb4 6a3b 1134 c31c 0234
000002e0: f700 32b9 32e4 0a34 20a3 deb3 0139 ecba
000002f0: 5ee4 50b8 5937 bd34 8e91 c8b3 cc8e 1d35
00000300: 183f 4cb5 42bc 2bb5 1fe5 c034 e4ae 7635
00000310: 76c4 1934 608e 0835 5cbd 18bd 1478 77bd
00000320: 9f4a 7ebd d381 f1bc 1aa2 6abd 270d 77bd
00000330: 9c2b 06bb cd47 f4bc 3b60 18bd 7e2b 1fbd
00000340: 1748 79bd f8d9 81bd 53f2 04bd 3510 6ebd
00000350: 81d0 7cbd a152 8ebb 0073 0dbd 270c 2ebd
00000360: 5bb3 fcb9 1736 8539 111a edb5 b480 0cb4
00000370: 8bf2 1fb4 51d1 1f37 6bb7 22b4 c804 0eb4
00000380: 5790 8f39 bcf4 1eba 12b3 1837 8d19 bf38
00000390: 588b 28b9 8c23 f8b7 9935 e0b6 94cd 39b8
000003a0: 939b 9437 0d8c 9238 4963 9136 91a6 53b6
000003b0: 1b16 c136 d354 16b6 1e5b 37b7 bb0b 5136
000003c0: 9d55 f936 44a1 4736 acd2 d136 6dd4 b2b7
000003d0: 33e5 e437 c21c c3b7 5d23 3db7 b25f 3338
000003e0: 96b7 5eb7 b720 3cb7 6c0b 37b7 bd35 38b7
000003f0: 2aa7 823a cac1 e5b9 c995 2038 941e 6139

conv3.bias f4 [128]
-0.09461579 -0.022216603 -0.0378319 -0.018795907 0.1622353 0.17344162 -0.16227747 -0.033241052
-0.11936996 -0.05310921 -0.115632765 -0.11488817 -0.11747447 -0.0058201863 -0.1256837 -0.05794137
-8.533459e-07 -0.019610634 -1.2099439e-05 -0.108644634 -0.13787216 -0.10849704 -0.1690321 0.091811426
-0.001299875 -0.06350336 -0.031055639 -0.03379797 0.15441537 -0.00010326495 -0.10995547 -0.12484706
-0.111465134 -0.11968098 0.20340529 0.16193919 -0.117600985 -0.11223647 -0.000528211 -0.10558196
-6.6938126e-05 3.018157e-05 1.4920013e-05 0.16500053 -0.16460744 6.16944e-06 -0.006559754 3.449227e-06
-0.03965762 -5.126901e-06 2.8996292e-06 -0.0036870323 -0.08137306 -0.12618522 -0.1153524 -4.381115e-06
-0.022830188 -0.00036480857 1.3194791e-06 -1.185118e-05 -0.00030706453 -1.4916307e-06 -0.07010081 -0.121489644
-0.111860715 -0.113656096 -0.033558346 -6.064473e-06 -0.11035063 -0.022329083 -0.103125416 -0.010790278
-0.1610497 -0.0013898105 -0.07950488 0.23223957 -0.115854755 -0.03782929 -0.098915465 -0.040499758
0.07861032 -0.031402335 -0.04013484 -0.043288305 -0.10444857 -0.10253425 0.19450213 2.3979557e-05
-0.008709718 -4.534251e-06 -0.14844996 -0.12918523 0.1891712 0.20880465 -0.051424373 -0.05097315
-0.030100578 3.3266824e-05 -0.004507355 -0.093731046 -0.01730124 -0.12333463 -0.0040816236 -4.630131e-06
-0.032211762 -0.13462248 -0.00878054 -0.0477116 -0.11672042 -0.0045405 -0.058752663 -0.12712397
-0.13518253 -0.019641995 -0.0013182142 -0.0025208297 -0.029472178 -0.18648174 -7.2749026e-05 -0.10259128
-0.12931216 -0.1017361 0.086395286 -0.09479525 -0.14797924 -0.055435274 1.4883127e-06 -0.114680454
00000000: ecc5 c1bd 98ff b5bc 9ff5 1abd e0f9 99bc
00000010: 0321 263e ae9a 313e 112c 26be c527 08bd
00000020: 3d78 f4bd 0b89 59bd dfd0 ecbd 7d4a ebbd
00000030: 7496 f0bd 43b7 bebb 3ab3 00be ee53 6dbd
00000040: 7c11 65b5 7ba6 a0bc b2fe 4ab7 1481 debd
00000050: 5c2e 0dbe b233 debd c016 2dbe a107 bc3d
00000060: 9160 aaba 0d0e 82bd 6568 febc bd6f 0abd
00000070: 101f 1e3e f38f d8b8 5530 e1bd d1af ffbd
00000080: d547 e4bd 4d1b f5bd 7a49 503e 63d3 253e
00000090: c9d8 f0bd 3cdc e5bd a477 0aba 5b3b d8bd
000000a0: 2261 8cb8 6e2e fd37 f850 7a37 e6f5 283e
000000b0: da8e 28be 1603 cf36 34f3 d6bb 4579 6736
000000c0: 0770 22bd bf07 acb6 4097 4236 23a2 71bb
000000d0: eba6 a6bd b336 01be e13d ecbd 7e01 93b6
000000e0: 6006 bbbc c743 bfb9 f518 b135 6ed4 46b7
000000f0: 81fd a0b9 0a34 c8b5 0391 8fbd 90cf f8bd
00000100: 3b17 e5bd 87c4 e8bd 7a74 09bd 6d7d cbb6
00000110: 83ff e1bd 7beb b6bc 6b33 d3bd b5c9 30bc
00000120: 36ea 24be 4d2a b6ba 74d3 a2bd 36d0 6d3e
00000130: 4245 edbd e3f2 1abd 3194 cabd 13e3 25bd
00000140: 73fe a03d bc9f 00bd 6e64 24bd 144f 31bd
00000150: 22e9 d5bd 7afd d1bd 912b 473e b527 c937
00000160: 34b3 0ebc eb24 98b6 4403 18be 2249 04be
00000170: 18b6 413e e3d0 553e 5da2 52bd 39c9 50bd
00000180: 7d95 f6bc fb87 0b38 6fb2 93bb 10f6 bfbd
00000190: 54bb 8dbc de96 fcbd 24bf 85bb 865c 9bb6
000001a0: 7bf0 03bd 7ada 09be 41dc 0fbc 3d6d 43bd
000001b0: 1e0b efbd 7ac8 94bb a2a6 70bd c92c 02be
000001c0: 4a6d 0abe 40e8 a0bc eec7 acba 8134 25bb
000001d0: a36f f1bc 12f5 3ebe d690 98b8 611b d2bd
000001e0: 686a 04be 045b d0bd 03f0 b03d 0324 c2bd
000001f0: df87 17be 1910 63bd 09c2 c735 96dd eabd

act_conv1.weight f4 [4, 128, 1, 1]
-3.262293e-07 -0.11503853 -0.097011045 2.0130992e-05 -0.07797866 -0.07905611 -0.09760633 -5.410833e-07
-0.08536654 8.591064e-05 2.4376473e-05 -0.049536683 -0.108111046 -0.098557204 -0.050718132 -0.07753506
-0.10887571 -0.097735494 1.2813598e-06 -0.11317839 -0.10740197 -0.10724392 9.6768474e-08 -0.06693957
1.0407732e-06 -5.9695525e-05 -0.0003054753 1.256525e-06 -0.08870553 -0.10369253 -0.05472923 -0.10448281
-0.048622265 -0.026136199 -0.08105596 -0.08322654 -0.06286041 -0.08946509 -0.0016056875 -0.072247885
1.3447406e-07 -0.08585187 -1.0961177e-05 -0.09400621 -0.10831337 -0.100692876 -0.09482018 -5.5166606e-08
-0.03683735 -3.8068683e-06 8.3968676e-05 0.0016696432 -0.11823495 -0.10924391 -0.030698959 -0.027852293
-0.11339472 -7.726613e-07 -3.5341688e-07 -5.2227364e-07 -7.174178e-08 -0.097632505 -0.06541412 -0.05221481
0.00029549448 -0.11035843 -0.12427846 -2.8711509e-07 -0.0002737035 -0.09489058 -0.059045702 -0.09105569
-0.11239022 -0.10104103 -0.121350065 -0.10192195 -0.078777954 -6.6530947e-07 -0.110163525 -0.11521896
4.6981705e-07 -0.00039704485 -1.3321837e-06 5.3303966e-06 -0.084148034 -0.077995814 -0.08708592 2.4130162e-07
-0.093965836 9.92099e-07 -0.10719957 -0.08845983 -0.07443371 -0.09778728 -0.013053903 -0.111600384
6.0983785e-07 -4.7550273e-07 -0.054237206 -0.06550376 -1.0083174e-06 -0.037525795 2.1824603e-07 1.6995142e-07
-1.7489434e-06 -8.83746e-08 0.0011366719 4.539767e-09 -0.053542342 -0.11179963 0.0001267382 -0.1085856
-0.11293334 -0.095100224 -5.649972e-07 -0.10068517 -1.3541772e-06 -0.109012164 -0.10320065 1.0385678e-06
-0.1097166 -0.08010035 -0.07392657 -2.450237e-08 -0.10718963 -8.0982454e-07 -1.0195641e-07 -0.05757934
-9.283479e-05 -0.08311966 -0.061011612 -0.012418534 -0.0349731 -0.058264837 -0.07593165 3.430885e-07
-0.04076749 -0.00021591516 -1.0560079e-07 -0.031771485 -0.07127748 -0.0822489 -0.039136603 -9.5300123e-07
-0.046355158 -0.06784677 4.015114e-07 -0.091231234 -0.0767374 -0.06850226 1.3693824e-05 3.7434262e-07
4.7633847e-07 3.6356683e-05 6.2184193e-07 -3.043534e-07 -0.04670474 -0.06829303 -0.039627682 -0.08386774
-0.03286595 -0.022843655 -0.039871085 -0.037855886 -0.039593384 -0.046355065 4.2897495e-06 -0.03591187
-3.9027216e-07 -0.025049191 4.951275e-07 -0.043572184 -0.069892325 -0.058968987 -0.049675863 -6.2775314e-07
-1.00636385e-07 4.5656662e-07 -2.4603818e-07 8.176742e-08 -0.09440768 -0.11224665 -0.03272807 -9.864321e-08
-0.058253225 -0.04963691 -1.0766214e-06 -9.589019e-07 1.8633348e-07 -0.053056225 -4.7338876e-08 -0.037096955
-8.4221114e-08 -0.09153181 -0.063084714 -0.0071873493 -8.86232e-05 -0.06897976 -0.032837566 -0.0565076
-0.07364698 -0.06213553 -0.07268613 -0.054643255 -0.035403866 8.2595875e-07 -7.7111287e-07 2.923933e-06
4.7217443e-07 -2.074212e-07 -0.024337964 -8.427062e-06 -0.04428789 -0.036071938 -0.069833115 4.00271e-07
-0.06828738 1.1272833e-06 -0.090263 -0.044215694 -0.041163065 -0.053333137 -0.008764559 -0.03991112
9.769538e-08 -4.6008245e-05 -0.05711396 -0.04338523 -1.018495e-06 -0.034804586 3.8971098e-07 3.7962696e-08
-0.020141385 -4.0658892e-07 8.8986167e-07 1.2924176e-06 -0.037437223 -0.06683412 -0.0026735533 -0.10976811
-0.07035209 3.3945895e-07 -2.6670196e-07 -0.075708635 1.7338826e-07 -0.06373045 -0.071128406 -1.3865544e-07
-0.077302344 -0.03868535 -0.046280798 -1.8166203e-07 -0.07012179 -6.029573e-07 -0.0023252822 -0.032031503
00000000: 9d24 afb4 5299 ebbd baad c6bd fade a837
00000010: 47b3 9fbd 2be8 a1bd d4e5 c7bd f63e 11b5
00000020: a7d4 aebd ec2a b438 147c cc37 fae6 4abd
00000030: 5369 ddbd 5cd8 c9bd d1bd 4fbd b4ca 9ebd
00000040: 3afa debd 8c29 c8bd 30fb ab35 12ca e7bd
00000050: 90f5 dbbd b3a2 dbbd 08cf cf33 9d17 89bd
00000060: b2b0 8b35 9561 7ab8 3328 a0b9 dfa5 a835
00000070: 3fab b5bd c05c d4bd c22b 60bd 15fb d5bd
00000080: 2428 47bd 951b d6bc ab00 a6bd ad72 aabd
00000090: f5bc 80bd 7939 b7bd ef75 d2ba b3f6 93bd
000000a0: f363 1034 1bd3 afbd e6e5 37b7 5486 c0bd
000000b0: 66d3 ddbd 1138 cebd 1531 c2bd 53f0 6cb3
000000c0: c3e2 16bd 8079 7fb6 5718 b038 eed7 da3a
000000d0: 2a25 f2bd 45bb dfbd 627c fbbc 7e2a e4bc
000000e0: 7e3b e8bd e168 4fb5 3fbd bdb4 5f32 0cb5
000000f0: 7610 9ab3 8df3 c7bd d7f7 85bd 32df 55bd
00000100: 99ec 9a39 9a03 e2bd b585 febd cc24 9ab4
00000110: dd7f 8fb9 fe55 c2bd e8d9 71bd 687b babd
00000120: d82c e6bd 99ee cebd 6286 f8bd 75bc d0bd
00000130: 5656 a1bd b897 32b5 6a9d e1bd ebf7 ebbd
00000140: 2a3b fc34 752a d0b9 7ccd b2b5 c2db b236
00000150: ce55 acbd 45bc 9fbd 1a5a b2bd 3e8c 8134
00000160: 2971 c0bd 4328 8535 738b dbbd 6d2a b5bd
00000170: b370 98bd b344 c8bd 0ae0 55bc be8e e4bd
00000180: bdb3 2335 9948 ffb4 d527 5ebd d626 86bd
00000190: 8655 87b5 a6b4 19bd 0357 6a34 e47b 3634
000001a0: 3dbd eab5 73c8 bdb3 61fc 943a 36fc 9b31
000001b0: 374f 5bbd 34f7 e4bd 07e5 0439 2162 debd
000001c0: 9849 e7bd e8c3 c2bd 50aa 17b5 0734 cebd
000001d0: 2dc1 b5b5 c541 dfbd dd5a d3bd eb64 8b35
000001e0: 19b3 e0bd a70b a4bd d066 97bd 4879 d2b2
000001f0: 3d86 dbbd b862 59b5 21f3 dab3 50d8 6bbd
00000200: 4cb0 c2b8 a43a aabd 50e7 79bd 1b77 4bbc
00000210: f43f 0fbd 1ca7 6ebd 0e82 9bbd b931 b834
00000220: d0fb 26bd 4967 62b9 a6c6 e2b3 d122 02bd
00000230: edf9 91bd 1c72 a8bd b44d 20bd bfd1 7fb5
00000240: e8de 3dbd 3ff3 8abd 4e8f d734 71d7 babd
00000250: 7f28 9dbd ea4a 8cbd 87be 6537 42f9 c834
00000260: 76bb ff34 b17d 1838 a7ec 2635 0366 a3b4
00000270: 784d 3fbd 37dd 8bbd a350 22bd dac2 abbd
00000280: 729e 06bd 9e22 bbbc dd4f 23bd c60e 1bbd
00000290: ac2c 22bd cfde 3dbd abf0 8f36 5318 13bd
000002a0: 9986 d1b4 f633 cdbc e7e8 0435 bf78 32bd
000002b0: b523 8fbd 7789 71bd eb78 4bbd de82 28b5
000002c0: 701d d8b3 0a1e f534 3b17 84b4 1d98 af33
000002d0: d058 c1bd 92e1 e5bd de0d 06bd aed5 d3b3
000002e0: ef9a 6ebd 1350 4bbd 6e80 90b5 9eb3 80b5
000002f0: f512 4834 7c51 59bd a551 4bb3 faf2 17bd
00000300: 0cdd b4b3 0875 bbbd 8f32 81bd db83 ebbb
00000310: 38db b9b8 4345 8dbd af80 06bd 8374 67bd
00000320: 3ad4 96bd d381 7ebd 77dc 94bd 9bd1 5fbd
00000330: a503 11bd 74b7 5d35 79fe 4eb5 c938 4436
00000340: 297f fd34 81b7 5eb4 6960 c7bc f561 0db7
00000350: 3867 35bd 2bc0 13bd aa04 8fbd d4e4 d634
00000360: 41da 8bbd 294d 9735 cfdb b8bd 841b 35bd
00000370: 9a9a 28bd d973 5abd 3a99 0fbc d879 23bd
00000380: 9acc d133 faf8 40b8 54f0 69bd b6b4 31bd
00000390: 39b3 88b5 418f 0ebd 7839 d134 6d0c 2333
000003a0: 8cff a4bc 2849 dab4 d4de 6e35 2177 ad35
000003b0: c657 19bd 54e0 88bd c836 2fbb 1ace e0bd
000003c0: c214 90bd e23e b634 3d2f 8fb4 210d 9bbd
000003d0: 9a2c 3a34 1c85 82bd c5ab 91bd 51e1 14b4
000003e0: b150 9ebd 8874 1ebd ef90 3dbd e10e 43b4
000003f0: 039c 8fbd e9da 21b5 c363 18bb 7733 03bd

act_conv1.bias f4 [4]
-0.12428481 -0.0609808 0.050241455 -0.00015172841
00000000: 0989 febd 01c7 79bd fcc9 4d3d 4919 1fb9

act_fc1.weight f4 [49, 196]
-1.2976672e-07 2.2495533e-07 -3.1307442e-07 3.447794e-08 2.6471088e-07 -2.523109e-07 8.8441084e-08 3.7003765e-08
1.0333985e-07 -8.70186e-08 5.662768e-08 3.61091e-07 -1.9220656e-07 -3.0023566e-07 -1.8195024e-07 -4.0837875e-07
-2.2290482e-07 -4.9963523e-07 -5.488478e-07 1.2855429e-07 -1.9005641e-07 2.0191342e-07 -2.0552754e-07 4.1481385e-07
-1.2350702e-07 5.5119295e-07 -5.037961e-07 1.1831114e-07 -3.1075507e-07 -4.4474814e-07 1.3462513e-07 -3.5659912e-07
5.119494e-07 2.7843972e-08 -3.661304e-07 4.021791e-08 -3.817353e-07 -4.2030322e-07 -4.74187e-07 3.8838414e-07
7.7639626e-08 -2.6606452e-07 1.5944251e-07 -1.0805823e-07 -4.8680086e-08 -7.9562014e-08 -3.8546776e-07 -2.5528985e-07
-9.69603e-08 -1.4737084e-06 2.920814e-06 1.5699187e-07 -9.638262e-07 1.0690799e-06 1.7545929e-06 -2.1677865e-06
1.0952983e-06 3.4133127e-06 2.9086e-06 1.6921707e-06 3.7427073e-06 1.7862208e-06 -3.9098805e-07 2.9597047e-06
3.78427e-06 -4.6089185e-06 -5.5358432e-06 -3.6538147e-06 4.7572003e-06 3.443609e-06 2.3640123e-06 2.8781571e-06
-5.450905e-06 -6.0759485e-06 -4.696764e-06 4.2375514e-06 3.234246e-06 3.4224518e-06 4.6473756e-06 -3.0765993e-06
-4.3271134e-06 -1.9799797e-06 4.9811624e-06 3.3007443e-06 -2.427598e-06 -1.0593542e-06 4.982541e-06 4.9533573e-06
4.748202e-06 -2.6721723e-06 -2.9583966e-06 1.6750282e-06 -2.9895418e-06 1.426951e-06 2.3055168e-06 5.7370477e-07
-2.3345433e-06 2.095402e-06 6.51823e-05 -0.003070822 -0.0049111396 -0.005075862 -0.0042316993 -0.0021197363
4.1531177e-05 -0.002262407 -0.014358494 -0.017995378 -0.018624544 -0.017817117 -0.011359348 -0.000977846
-0.0035572217 -0.01836133 -0.022710765 -0.023310008 -0.02253798 -0.014309707 -0.0019794619 -0.0037779994
-0.01747195 -0.025201313 -0.0259765 -0.023924768 -0.015224708 -0.0021663804 -0.002948621 -0.01626555
-0.022038655 -0.021606226 -0.021132289 -0.013523626 -0.0017131439 -0.0009274319 -0.008580489 -0.012496565
-0.013682758 -0.011840213 -0.007324123 -0.00043813456 -1.3234219e-05 -0.0001297165 -0.00065975665 -0.0008473882
-0.0006140837 -9.148659e-05 -1.375267e-05 1.037972e-07 3.3362133e-07 4.091209e-07 4.3183329e-07 3.2894995e-08
-1.4756381e-08 -1.4673734e-07 2.6177887e-07 -1.6863788e-07 -4.779708e-07 -5.974026e-08 -4.5799322e-07 4.021997e-07
-6.8635195e-08 1.06291e-07 4.474568e-07 5.6237775e-07 -3.573419e-08 2.79094e-07 -5.6070684e-07 4.2681282e-07
2.0161414e-07 -4.877812e-07 -5.800133e-07 1.8627298e-07 -6.91423e-08 1.866138e-07 2.491549e-07 3.2135085e-07
-3.3494192e-07 -3.920593e-07 6.182538e-07 6.1112934e-07 -5.9934433e-07 2.3497616e-07 -1.5159746e-07 -4.1172004e-07
-5.580437e-07 5.312509e-07 5.7684747e-07 -5.2173164e-07 -4.099971e-07 -3.5210218e-07 -1.895983e-07 4.6598225e-07
-3.09572e-07 -8.284084e-08 -1.296165e-07 -4.550156e-07 2.1890553e-06 1.8098377e-05 -0.00028835307 -0.00046711595
-0.00037878816 -4.2537285e-05 -1.177856e-05 3.0514375e-05 -0.0019425888 -0.004739156 -0.0058184713 -0.005190345
-0.0029560062 -5.2684947e-05 3.4924085e-07 -0.0036932828 -0.0075568906 -0.008806016 -0.008163286 -0.005231628
-0.00041196903 -2.3988307e-05 -0.0041658054 -0.008249026 -0.009684282 -0.008888764 -0.0058434587 -0.0005249373
5.766632e-06 -0.0035888222 -0.007270616 -0.008393606 -0.0076850913 -0.0048551583 -0.00034596978 2.2746954e-05
-0.0015266378 -0.0039272592 -0.004671297 -0.0041019754 -0.0021780247 4.399284e-06 6.948276e-06 2.6927926e-05
-3.3761466e-05 -9.160366e-05 -4.1020878e-05 3.309567e-05 -1.9193674e-06 -3.983005e-06 -2.6081847e-07 -3.654842e-05
-3.806967e-05 -3.458971e-05 1.3128719e-06 -6.8819654e-06 1.0390664e-05 0.00038861448 0.0014911838 0.001794013
00000000: 0156 0bb4 408b 7134 9f14 a8b4 e514 1433
00000010: 961d 8e34 5975 87b4 00ed bd33 12ee 1e33
00000020: afeb dd33 fbde bab3 cb36 7333 f8db c134
00000030: 5661 4eb4 1330 a1b4 1a5e 43b4 263f dbb4
00000040: 9c57 6fb4 ac1e 06b5 8954 13b5 bc08 0a34
00000050: 4f12 4cb4 8acd 5834 fbae 5cb4 95b3 de34
00000060: 5a9d 04b4 b1f5 1335 9b3c 07b5 3d12 fe33
00000070: dad5 a6b4 b8c5 eeb4 798d 1034 9c72 bfb4
00000080: e56c 0935 8b2d ef32 9490 c4b4 0fbc 2c33
00000090: 4df1 ccb4 09a6 e1b4 c493 feb4 1c83 d034
000000a0: d6ba a633 a1d7 8eb4 3933 2b34 a40d e8b3
000000b0: 5214 51b3 aedb aab3 49f2 ceb4 c50e 89b4
000000c0: 7d38 d0b3 3ccc c5b5 3403 4436 9991 2834
000000d0: d15c 81b5 4e7d 8f35 5a7f eb35 4a7a 11b6
000000e0: 2a02 9335 4410 6536 5e31 4336 8b1e e335
000000f0: 392b 7b36 14be ef35 fde8 d1b4 579f 4636
00000100: 43f5 7d36 4fa6 9ab6 88c0 b9b6 0f34 75b6
00000110: 0aa0 9f36 c118 6736 6ca5 1e36 5d26 4136
00000120: ebe6 b6b6 00e0 cbb6 e598 9db6 4a30 8e36
00000130: ec0b 5936 46ad 6536 a7f0 9b36 9377 4eb6
00000140: 9f31 91b6 cbdf 04b6 dc23 a736 5b82 5d36
00000150: d1e9 22b6 222f 8eb5 b42f a736 0435 a636
00000160: bf52 9f36 9253 33b6 de88 46b6 88d1 e035
00000170: f09f 48b6 aa85 bf35 7ab8 1a36 b100 1a35
00000180: 26ab 1cb6 bb9e 0c36 7bb2 8838 d83f 49bb
00000190: a0ed a0bb 6b53 a6bb 11aa 8abb 46eb 0abb
000001a0: c331 2e38 e444 14bb e43f 6bbc 0b6b 93bc
000001b0: 8092 98bc 34f5 91bc 8f1c 3abc 112b 80ba
000001c0: 4720 69bb 806a 96bc ed0b babc a1f4 bebc
000001d0: 92a1 b8bc 4373 6abc dcb9 01bb 5098 77bb
000001e0: 5621 8fbc fc72 cebc abcc d4bc e0fd c3bc
000001f0: 0e71 79bc d5f9 0dbb a73d 41bb 553f 85bc
00000200: 698a b4bc 8aff b0bc 9f1d adbc 3392 5dbc
00000210: 928b e0ba e71e 73ba 2e95 0cbc 64be 4cbc
00000220: a62d 60bc 74fd 41bc 32ff efbb 6db5 e5b9
00000230: 8a08 5eb7 8204 08b9 85f3 2cba 4223 5eba
00000240: 76fa 20ba 7ddc bfb8 45bb 66b7 1de7 de33
00000250: 911c b334 26a5 db34 b7d6 e734 6e48 0d33
00000260: 4083 7db2 da8e 1db4 9d8a 8c34 d412 35b4
00000270: e74d 00b5 8e4a 80b3 1ce2 f5b4 e8ed d734
00000280: 9964 93b3 1842 e433 ff39 f034 4ef6 1635
00000290: 287a 19b3 63d6 9534 7b83 16b5 b524 e534
000002a0: 467b 5834 12f0 02b5 36b2 1bb5 5402 4834
000002b0: 627b 94b3 0360 4834 97c3 8534 2086 ac34
000002c0: 11d2 b3b4 387c d2b4 14f6 2535 7d0c 2435
000002d0: a1e2 20b5 c14d 7c34 cbc6 22b4 5f0a ddb4
000002e0: 79cc 15b5 499b 0e35 a8d8 1a35 200d 0cb5
000002f0: 931d dcb4 8e08 bdb4 6294 4bb4 1d2c fa34
00000300: 4033 a6b4 3ce6 b1b3 b62c 0bb4 de48 f4b4
00000310: afe7 1236 f8d1 9737 182e 97b9 3ee7 f4b9
00000320: 1698 c6b9 106a 32b8 889c 45b7 1ff9 ff37
00000330: 779e feba ec4a 9bbb e0a8 bebb c513 aabb
00000340: 8eb9 41bb 08fa 5cb8 4c7f bb34 010b 72bb
00000350: cb9f f7bb 1c47 10bc 4ebf 05bc 146e abbb
00000360: 8cfd d7b9 7f3a c9b7 4f81 88bb ec26 07bc
00000370: d3aa 1ebc 2ea2 11bc 7c7a bfbb f29b 09ba
00000380: fe7e c136 7232 6bbb 593e eebb 5685 09bc
00000390: 38d3 fbbb 0518 9fbb 4763 b5b9 b6d0 be37
000003a0: 7719 c8ba 3db0 80bb ae11 99bb dd69 86bb
000003b0: 31bd 0ebb 909d 9336 3d25 e936 48e3 e137
000003c0: 199b 0db8 571b c0b8 d50d 2cb8 34d0 0a38
000003d0: 7bce 00b6 c1a5 85b6 9e06 8cb4 914b 19b8
000003e0: ffac 1fb8 6b14 11b8 ef35 b035 a2eb e6b6
000003f0: 9053 2e37 f4be cb39 d373 c33a 1625 eb3a

act_fc1.bias f4 [49]
-1.7933089 0.3367298 -0.6541696 0.4364926 -0.34851828 0.4334532 -1.7882463 0.40975958
-1.7173936 0.44843924 -1.823976 0.35338905 -1.71846 0.44445837 -0.58777225 0.2965259
0.6849469 0.3803312 0.47834888 0.4441782 -0.48862207 0.4900312 -1.8357787 0.5778064
-1.4522095 0.45913607 -1.8289764 0.38012692 -0.39809468 0.35204142 0.60299695 0.52114964
0.45724127 0.45841196 -0.45086318 0.4146265 -1.7137731 0.44408238 -1.8233087 0.5161088
-1.7065856 0.39960152 -1.7855521 0.5320697 -0.5814759 0.48526296 -0.47572747 0.3397001
-1.7856271
00000000: 258b e5bf d967 ac3e a977 27bf f57b df3e
00000010: fd70 b2be 94ed dd3e 41e5 e4bf 02cc d13e
00000020: 8ed3 dbbf d499 e53e 0c78 e9bf 69ef b43e
00000030: 7ff6 dbbf 0c90 e33e 3e78 16bf 3ed2 973e
00000040: ae58 2f3f c5ba c23e 25ea f43e 536b e33e
00000050: ac2c fabe 5fe5 fa3e ccfa eabf 1feb 133f
00000060: 00e2 b9bf e213 eb3e e61b eabf ff9f c23e
00000070: 11d3 cbbe c63e b43e 025e 1a3f 106a 053f
00000080: 871b ea3e f9b4 ea3e 8ad7 e6be ed49 d43e
00000090: eb5c dbbf c45e e33e 2e62 e9bf b51f 043f
000000a0: 6671 dabf 9298 cc3e f98c e4bf b835 083f
000000b0: 9bdb 14bf 6374 f83e 8d92 f3be 2ced ad3e
000000c0: 6e8f e4bf

val_conv1.weight f4 [2, 128, 1, 1]
-0.13497037 -0.111393824 -0.15217578 -0.068936504 -0.143009 -0.21719106 -0.047629513 1.0832589e-06
-0.10269886 -0.14576711 0.00030683228 -0.117751464 -0.13068092 0.02951074 -0.09529485 -0.13740157
0.0061908285 0.0017185416 -0.1473656 -0.17371994 -0.06989465 -0.01616065 -7.568456e-09 -0.18089053
2.0420587e-06 -7.52803e-07 2.091338e-05 -3.1236664e-06 -0.1719189 0.018315436 -0.11783202 -0.044155166
-0.10769926 -0.114902996 -0.16607596 -0.19518368 -0.13603872 -0.11121354 -0.09246584 -0.09894826
-0.1091651 -1.0111939e-07 -0.0330464 -0.16892019 -0.07741563 0.00783945 0.005293255 -8.225286e-07
-0.16272031 -0.065746725 3.9350098e-06 4.1794107e-07 -0.036059234 0.008845839 -0.0904922 7.419082e-08
-0.14520808 0.00970117 -0.020364782 1.0493458e-06 -0.07375211 0.011377 -8.4632484e-07 -0.11142344
4.0451473e-06 0.044644088 -0.18113513 0.00015392285 7.042773e-07 7.058834e-06 -0.09158188 0.0015368506
-0.047230463 -1.2354521e-05 -0.17246464 -0.19075254 -0.13777736 5.877528e-07 0.0007608893 -0.1387522
-0.28720134 -1.7035516e-06 -2.7627375e-06 -0.005091816 -0.09759354 -0.12889808 -0.21446915 -0.08393545
0.022323737 -1.1717882e-06 -0.038858566 -0.13283695 -0.15792692 -0.18092577 -5.7249313e-06 -0.1393524
-4.447731e-07 -2.3876174e-07 0.008468527 -0.12772527 -1.8558698e-06 -0.09375378 -1.0824052e-06 -3.4318145e-07
-0.14842619 -0.10802292 -0.018365119 -0.13234907 -0.099597685 -0.112566374 4.6966325e-06 -0.029570755
-0.18088429 -1.8958406e-06 -2.1221988e-06 0.008846583 6.626387e-08 -0.058264893 0.017733255 -7.549747e-07
0.0002903211 -0.098874554 -0.14154746 3.600345e-07 -0.06398631 -0.24318825 2.3027985e-08 -0.11327577
-0.14088258 -0.010912489 -0.19530001 5.5723904e-06 -0.2786036 -0.24233189 0.0075132465 5.4868974e-07
-0.112490036 -0.103927545 -0.10749892 -0.09799169 -0.1919078 0.008888119 -0.08380461 -0.14014903
3.1668806e-05 2.7961812e-06 1.9726973e-07 -0.128164 -0.030798322 0.020469125 1.5855237e-07 -0.31191406
-0.13594654 -4.0323567e-07 -0.11107882 -2.6336008e-06 -0.20449683 0.004155056 -0.12357735 0.0058728033
-0.12520888 -0.12904531 -0.2581059 -0.14063175 -0.11231865 -0.11810263 -8.143693e-07 -0.11806923
1.5767818e-06 4.701896e-07 7.3122425e-07 -0.22045568 -0.028279228 0.00035483207 2.7247188e-05 -0.19584332
-0.114980906 0.012516769 -4.8010827e-07 -3.917012e-07 -0.076838 -0.08348042 -0.22177203 -9.98409e-07
-0.04828746 0.00058485696 -5.2911553e-10 -3.249993e-07 -1.7270581e-06 0.0018773879 -9.5949424e-08 -0.12666802
-3.279988e-05 0.043791387 -0.15208219 1.0026242e-05 0.0016243028 1.6722e-06 -0.08518721 -1.012269e-05
-0.015401852 -5.0424896e-06 -0.12012697 -0.23628914 -0.112240575 -0.11999781 8.222394e-06 -0.13942398
-0.32375148 7.0619984e-07 -0.00013462538 -0.11065591 -0.11052615 -0.095920265 -0.22499406 -1.1767808e-06
0.007521367 4.505451e-05 -0.02545974 -0.12083129 -0.26723644 -0.22119996 -0.11924908 -0.19652712
-6.9125605e-07 -0.19429629 0.00029009095 -0.12063439 1.08621926e-07 -0.093786985 -1.8247694e-06 1.617777e-07
-0.11889967 -0.15516782 6.874117e-07 -0.11912938 -0.09458564 9.7403845e-06 -0.02270261 0.052339245
-0.10796921 -1.4385905e-07 3.742112e-07 0.0003711684 -1.9037776e-06 -0.04374091 0.00453475 -5.996283e-07
-0.0068067545 -0.11180224 -0.15834075 -3.0332185e-07 0.03264295 -0.28304094 -2.538543e-07 -0.10182505
00000000: ac35 0abe 7222 e4bd f8d3 1bbe 952e 8dbd
00000010: f470 12be 5567 5ebe 2a17 43bd 7e64 9135
00000020: c853 d2bd f943 15be 55de a039 ae27 f1bd
00000030: 38d1 05be 82c0 f13c f229 c3bd ffb2 0cbe
00000040: 6fdc ca3b b040 e13a 02e7 16be a4e3 31be
00000050: ed24 8fbd 5763 84bc 6c06 02b2 5e3b 39be
00000060: 4d0a 0936 3a14 4ab5 246f af37 2ea0 51b6
00000070: 820b 30be 410a 963c ea51 f1bd 0cdc 34bd
00000080: 6e91 dcbd 4352 ebbd d10f 2abe 3bde 47be
00000090: bc4d 0bbe edc3 e3bd bb5e bdbd 63a5 cabd
000000a0: f491 dfbd f926 d9b3 a95b 07bd 6af9 2cbe
000000b0: 168c 9ebd 0971 003c 0b73 ad3b bccb 5cb5
000000c0: 27a0 26be 38a6 86bd 7a09 8436 6261 e034
000000d0: d9b2 13bd 23ee 103c f953 b9bd d652 9f33
000000e0: 6db1 14be a8f1 1e3c 0bd4 a6bc 3fd7 8c35
000000f0: 590b 97bd 9966 3a3c 002f 63b5 f931 e4bd
00000100: 8dbb 8736 b8dc 363d 7d7b 39be 5a66 2139
00000110: 910d 3d35 ecda ec36 488f bbbd 2670 c93a
00000120: bb74 41bd 4346 4fb7 929a 30be a254 43be
00000130: 8215 0dbe 11c6 1d35 6b76 473a 0f15 0ebe
00000140: 0e0c 93be 96a5 e4b5 7867 39b6 40d9 a6bb
00000150: 1fdf c7bd dcfd 03be cd9d 5bbe 59e6 abbd
00000160: 45e0 b63c 5646 9db5 292a 1fbd 6906 08be
00000170: 98b7 21be 9b44 39be c918 c0b6 65b2 0ebe
00000180: 26c9 eeb4 2a2f 80b4 94bf 0a3c 6aca 02be
00000190: 3317 f9b5 fb01 c0bd 2947 91b5 803e b8b4
000001a0: 09fd 17be 1f3b ddbd 7272 96bc 8486 07be
000001b0: dff9 cbbd 3389 e6bd c497 9d36 5e3e f2bc
000001c0: bb39 39be 9674 feb5 196b 0eb6 42f1 103c
000001d0: f34c 8e33 2ba7 6ebd 5545 913c 77a9 4ab5
000001e0: 3d36 9839 be7e cabd d1f1 10be c44a c134
000001f0: 410b 83bd 5706 79be 13cf c532 20fd e7bd
00000200: 8643 10be 4cca 32bc bafc 47be 78fa ba36
00000210: 22a5 8ebe da25 78be ae31 f63b ac49 1335
00000220: 2d61 e6bd f7d7 d4bd 6528 dcbd deaf c8bd
00000230: 7a83 44be 799f 113c c0a1 abbd 3a83 0fbe
00000240: 1fd4 0438 07a6 3b36 17d1 5334 6c3d 03be
00000250: c34c fcbc deae a73c 8b3e 2a34 33b3 9fbe
00000260: 9235 0bbe 4a7c d8b4 4b7d e3bd ebbc 30b6
00000270: 9e67 51be 2327 883b 1f16 fdbd a570 c03b
00000280: c236 00be 7424 04be 7526 84be c501 10be
00000290: 5207 e6bd cbdf f1bd 089b 5ab5 48ce f1bd
000002a0: cfa1 d335 5e6e fc34 5949 4435 22bf 61be
000002b0: d7a9 e7bc c108 ba39 e490 e437 278b 48be
000002c0: 1c7b ebbd 2213 4d3c cae0 00b5 014b d2b4
000002d0: 3e5d 9dbd c8f7 aabd 3518 63be 1201 86b5
000002e0: 12c9 45bd 1651 193a 3271 11b0 907b aeb4
000002f0: 44cd e7b5 af12 f63a c10c ceb3 43b5 01be
00000300: 9a92 09b8 995e 333d 6fbb 1bbe 6236 2837
00000310: 8fe6 d43a 5b70 e035 a276 aebd 9fd4 29b7
00000320: 0d58 7cbc a832 a9b6 2105 f6bd c8f5 71be
00000330: 63de e5bd 69c1 f5bd eaf2 0937 29c5 0ebe
00000340: c1c2 a5be af91 3d35 3a2a 0db9 919f e2bd
00000350: 895b e2bd d871 c4bd d864 66be e1f1 9db5
00000360: cd75 f63b e9f8 3c38 f290 d0bc 6576 f7bd
00000370: 37d3 88be 3e82 62be dd38 f4bd 683e 49be
00000380: c18e 39b5 9bf5 46be 5917 9839 2a0f f7bd
00000390: 8943 e933 6413 c0bd 99ea f4b5 1eb5 2d34
000003a0: ac81 f3bd 50e4 1ebe 9386 3835 1bfa f3bd
000003b0: 1eb6 c1bd a26a 2337 d3fa b9bc ad61 563d
000003c0: f61e ddbd ad77 1ab4 32e7 c834 6199 c239
000003d0: 4d85 ffb5 ab29 33bd 3d98 943b 25f6 20b5
000003e0: 320b dfbb 93f8 e4bd 1424 22be 3dd8 a2b4
000003f0: 9db4 053d beea 90be 7849 88b4 a789 d0bd

val_conv1.bias f4 [2]
-0.1725662 -0.069939815
00000000: 32b5 30be 9b3c 8fbd
