n_row_chess/current_policy.model (torch, 446643 bytes, 15 tensors)

conv1.weight f4 [32, 4, 3, 3]
000000 aa 8a 64 bd 93 86 1b be a6 55 56 be 55 a5 60 bd
       -0.055796303 -0.15188055 -0.2093111 -0.054845173
000010 37 7c 18 be e4 e7 5a be de 5e 3d bd d2 2f 0a be
       -0.14891134 -0.21377522 -0.04623305 -0.13494805
000020 0c de 51 be 6b 7b 92 3c 71 2f c9 3d 8e 30 33 3e
       -0.2049486 0.017881116 0.09823502 0.17498991
000030 01 8e b1 3c 93 e1 cd 3d b7 4e 38 3e 4d 2a 9f 3c
       0.021674158 0.100527905 0.17998777 0.01942935
000040 9e e8 b6 3d a0 f4 2c 3e df b3 06 bb b0 01 c2 bc
       0.08931087 0.16890192 -0.002055399 -0.023682445
000050 31 85 4d bd 64 7e 65 bb 01 ba d7 bc 7c 88 63 bd
       -0.05017585 -0.0035017962 -0.02633381 -0.055550084
000060 5a 04 87 bb b4 9b b1 bc 37 20 40 bd ff 82 16 3e
       -0.004120392 -0.02168069 -0.046905722 0.14698409
000070 e3 e6 c6 3d 85 c3 2d 3e 29 a7 dc 3d 47 b8 7b 3d
       0.09712007 0.16969116 0.10774071 0.061455037
000080 f7 3e d9 3d 3b 63 48 3d df f7 42 3e 3f 62 b8 3d
       0.10607713 0.04892276 0.19039868 0.09003114
000090 48 58 6c be 4b 9a 73 be a0 58 6b be 1f 87 74 be
       -0.23080552 -0.23789327 -0.22983027 -0.2387967
0000a0 ee e4 6e be fb 4f 77 be eb 6e 73 be 02 7a 71 be
       -0.23329517 -0.24151604 -0.2377278 -0.23581699
0000b0 89 64 75 be 8a e8 4f 3e e6 cc 50 3e d7 0d 48 3e
       -0.23964132 0.2030355 0.20390663 0.1953653
0000c0 9f 2b 5a 3e b2 a6 5a 3e 34 76 52 3e 25 3f 5d 3e
       0.21305703 0.21352652 0.20552903 0.21606119
0000d0 6e 07 57 3e dd 00 4e 3e 8a 27 40 bc 1d e1 74 bb
       0.20998928 0.20117517 -0.011728177 -0.0037365623
0000e0 d4 50 22 bc 3e bd eb 3a 41 81 8b 3b a9 d5 02 bb
       -0.009906966 0.0017985476 0.0042573516 -0.0019963777
0000f0 f3 10 f4 bb 77 76 ab bb 3f 07 7d bc cb 28 ad 3c
       -0.0074483096 -0.005232628 -0.015443622 0.021137616
000100 d1 96 32 bd 3c 1f 7a 3d 57 14 b3 3d 5a 68 42 bc
       -0.04360086 0.061064944 0.08744114 -0.0118657
000110 b2 7a 54 3d af bb ba 39 9d 04 10 3e 8a cf e2 3d
       0.051874824 0.0003561652 0.1406426 0.11074741
000120 5a 97 01 3e 37 cb 06 3e 6a 71 d9 3d 11 43 ff 3d
       0.12655392 0.13163458 0.10617335 0.12463964
000130 37 c1 07 3e d1 3b f8 3d 60 ef fc 3d 51 1c 0f 3e
       0.132573 0.12120784 0.12350345 0.13975646
000140 2c f4 c4 3d 75 a1 17 be 8c e3 09 be 6a 68 d3 bd
       0.096168846 -0.14807685 -0.13465708 -0.1032265
000150 32 d9 1f be 5b 1d 10 be d6 32 d6 bd 1a 6b fc bd
       -0.15610197 -0.14073698 -0.10458915 -0.123251155
000160 cc 91 fe bd 45 02 b4 bd 77 de 2d bb 50 ec 21 ba
       -0.12430152 -0.087894954 -0.0026530304 -0.0006176876
000170 04 f5 e7 3a d2 a0 9b bb fe 65 b6 ba a6 11 80 3b
       0.0017696922 -0.004749396 -0.0013915894 0.003908354
000180 35 27 c7 ba 3b 91 ed 3a fd d4 1e 3c bf 68 28 3d
       -0.001519418 0.0018124947 0.009694335 0.04111552
000190 21 90 92 3c 75 47 8b 3b 24 ca a4 3d 71 17 e8 3c
       0.017890992 0.0042504617 0.08046368 0.02833149
0001a0 5f 92 82 bd 9d c4 17 3d b3 a0 c1 3c 1d 0a 68 bb
       -0.06375574 0.03705274 0.023636198 -0.0035406419
0001b0 ef da f3 b8 d7 ed 9c bc bb 88 89 bd da c5 f4 b8
       -0.000116279225 -0.01915638 -0.067155324 -0.000116716794
0001c0 55 dd a8 bc 53 e2 95 bd c0 cb d5 37 dd 2e 70 bc
       -0.020613352 -0.073185585 2.5486457e-05 -0.014659611
0001d0 97 81 80 bd 90 f3 1d 37 cc fb 0f 3b aa 94 18 3d
       -0.06274717 9.414638e-06 0.002197015 0.037251152
0001e0 11 ad 78 37 09 fd 40 3b 33 a2 29 3d 2f df 0c 37
       1.4822247e-05 0.0029447696 0.04141445 8.396614e-06
0001f0 f5 ba e1 3a f5 f2 09 3d 45 17 9e b6 5c a0 21 b7
       0.0017221855 0.033678968 -4.711476e-06 -9.633684e-06
000200 5e f7 82 37 12 0c dc b6 32 42 6f b7 06 f7 56 b8
       1.5612397e-05 -6.557916e-06 -1.4260922e-05 -5.1251634e-05
000210 b7 13 75 b3 25 1c 18 b6 ba b1 fa 37 72 35 96 3e
       -5.706144e-08 -2.2666147e-06 2.9885083e-05 0.2933765
000220 c1 2a a3 3d 33 71 f2 3d 8d 1d 8c 3d 89 6c 08 3e
       0.07967139 0.11837997 0.06841574 0.13322653
000230 4f a6 f2 3c 49 47 72 3d 6b 35 29 3d ef cc 5b bc
       0.029620318 0.059150014 0.04131071 -0.013415559
000240 fe 8d 5d ba 7a a3 9d bb 91 82 6d bc e3 43 82 ba
       -0.00084516394 -0.0048107477 -0.0144964615 -0.0009938445
000250 44 89 b7 bb 37 83 8b bc 32 cf 33 ba d9 56 a2 bb
       -0.00560108 -0.017030342 -0.00068591826 -0.0049542007
000260 f5 fa 6a bc 54 dd df 39 2d 86 13 3b 4e ad 0d 3c
       -0.014342059 0.00042698777 0.0022510395 0.008647276
000270 41 ba 33 3a 02 ab 4c 3b ab a9 30 3c d5 14 fc 39
       0.0006856062 0.0031229858 0.0107826395 0.00048080707
000280 31 a5 16 3b 14 3a 0a 3c 30 68 8e b6 60 00 05 b6
       0.0022986645 0.0084366985 -4.244059e-06 -1.9818763e-06
000290 f3 31 d0 36 ca 78 6b b6 e6 9a c3 b6 b4 20 37 37
       6.204698e-06 -3.5088037e-06 -5.8294854e-06 1.0915264e-05
0002a0 47 cf 80 b6 e9 af bf b6 bd dd 06 37 5d af 36 3e
       -3.8388275e-06 -5.712722e-06 8.03865e-06 0.17840333
0002b0 4f 27 29 3e 1d a1 e6 3d a7 3f 34 bd f1 c0 a5 bd
       0.16518901 0.11261199 -0.044006016 -0.08093441
0002c0 28 8b 72 bd 4c 56 89 bd 9b cd d2 bd d4 ff 4c bc
       -0.05921474 -0.06705913 -0.102931224 -0.012512166
0002d0 94 ef 24 be 5a fd 37 be 0f ed 20 be 34 7a 45 be
       -0.16107017 -0.1796774 -0.1571543 -0.19284898
0002e0 63 32 4c be d1 44 43 be 2d 91 33 be 18 c3 47 be
       -0.19941096 -0.1906922 -0.17535849 -0.19508016
0002f0 ee 9c 30 be eb b1 03 3e ae 0d d7 3d dc d7 ce 3d
       -0.17247364 0.12860839 0.10500656 0.10099766
000300 58 26 fd 3d 1c 5f f7 3d c6 f9 ec 3d 28 5b 0a 3e
       0.12360829 0.120786875 0.11571078 0.13511336
000310 8d 00 fd 3d 7e ff f7 3d 86 87 de bc 0f 64 65 bd
       0.12353621 0.12109278 -0.027164232 -0.056003626
000320 d5 7a ee bc b8 88 65 bd ca f5 34 bd 4a 42 22 bd
       -0.029111305 -0.05603859 -0.044179715 -0.039614
000330 c8 aa e6 bc e6 35 21 bd 4a f2 d1 bc 2b 38 2e 3d
       -0.028157607 -0.039358042 -0.025628228 0.042534035
000340 60 d9 98 bb 5c 60 ab 3d bb 36 72 3b 5c d3 0a 3e
       -0.004664585 0.083679885 0.0036958891 0.1355719
000350 83 3a 2c 3d 1f 50 c0 3d 71 b0 76 3d 87 4a 12 3d
       0.04204799 0.09390282 0.06022686 0.035715606
000360 e3 3e 0c be c8 67 20 be 62 99 de bd 4e 9a 20 be
       -0.13695864 -0.1566459 -0.10869099 -0.15683863
000370 f3 1e 34 be 5f 5a 06 be 89 49 04 be 7c 1a 07 be
       -0.17589931 -0.13120411 -0.12918676 -0.13193697
000380 4b 81 e9 bd 31 7a f0 3d 22 ad 14 3e 7e 88 03 3e
       -0.11401614 0.11742056 0.1451917 0.12845036
000390 ad 9d 0f 3e 43 90 06 3e a2 87 d6 3d e6 7f e8 3d
       0.14024992 0.13140969 0.10475089 0.1135252
0003a0 b2 5a f0 3d 6a 66 ae 3d 6e b4 c9 3a ce 4d 12 3c
       0.11736049 0.08515628 0.0015388855 0.008929683
0003b0 3e 76 ca 3b be 83 05 3c fe 1c c4 3b 74 0f 84 bb
       0.0061786463 0.008149086 0.0059849015 -0.0040301625
0003c0 80 59 43 b9 95 2e 41 39 96 f5 37 bc 69 0d 04 3c
       -0.0001862999 0.00018423267 -0.011227986 0.008059838
0003d0 13 6e a7 3d 2d b3 78 3d 2e ea ba 3d 59 0a 63 3d
       0.08175292 0.06071775 0.091266975 0.05542979
0003e0 86 34 22 3d 68 24 9d bd 92 17 65 bd 10 5e 0f 3c
       0.03960087 -0.076729596 -0.05593068 0.008750454
0003f0 4e 65 06 bb 77 ae 39 bd 80 d2 bf bd d2 4f 5e 3c
       -0.002050716 -0.0453324 -0.093663216 0.013568835

conv1.bias f4 [32]
000000 c9 37 8b be d2 e2 8e be 79 92 04 3c cf 6e 96 bd
       -0.27190998 -0.27907425 0.008091562 -0.07345354
000010 fc 45 ec bc 3d 4a 90 be b1 c0 3c 3c 99 bd 6f 3b
       -0.028841965 -0.2818164 0.011520551 0.0036581515
000020 b6 69 b5 be 28 d6 6e be 79 fc 75 be 9f 4b bb bd
       -0.35432214 -0.23323882 -0.24022092 -0.09145283
000030 1d 6d 37 be 3a 04 1e be 40 4f ed 3d 83 65 33 3c
       -0.17912717 -0.154313 0.11587381 0.010949495
000040 57 b9 72 3d 3b 56 90 be 6a bb ad be c4 a5 94 bd
       0.059258785 -0.2819079 -0.33932048 -0.0725818
000050 3b 7f f5 bc 0a 00 aa be 92 b0 30 3e fe bb a2 be
       -0.029967895 -0.33203155 0.17254856 -0.31784052
000060 65 cf 86 3d 8b 14 89 be 3d 17 88 be 23 78 21 be
       0.06582526 -0.26773486 -0.2658023 -0.15768485
000070 29 82 84 3d 63 e5 82 be 43 ff d8 3d 40 dc 13 be
       0.064701386 -0.25565633 0.10595562 -0.14439487

conv2.weight f4 [64, 32, 3, 3]
000000 f5 9e ae af e5 8e 6d 32 56 81 c9 2f 7b c6 8e 32
       -3.176336e-10 1.3827706e-08 3.6653586e-10 1.6621234e-08
000010 83 31 71 b3 92 8f b2 32 9e 3c f5 31 52 ea 86 32
       -5.6157216e-08 2.0787216e-08 7.13733e-09 1.570621e-08
000020 1f 91 02 32 54 27 37 ac 95 a6 66 ac 97 f6 4a ac
       7.599993e-09 -2.6027696e-12 -3.2777437e-12 -2.8842811e-12
000030 48 8b 85 2a fd f1 09 2c d4 14 46 2c 5b 76 5d 2c
       2.3722192e-13 1.9603201e-12 2.8149054e-12 3.147169e-12
000040 c4 13 2b 2c e3 8e 3f ac 9e f0 57 ad 4f e7 c2 2d
       2.4311534e-12 -2.722205e-12 -1.2274763e-11 2.2157968e-11
000050 a1 79 54 ad b3 7f b8 2d 5a 3f d8 ad 22 2a c1 2d
       -1.2077812e-11 2.0975088e-11 -2.458449e-11 2.196027e-11
000060 62 a6 7f 2d f2 a5 16 2d bd 34 6a 2d d9 c5 0c b2
       1.4532016e-11 8.56336e-12 1.331307e-11 -8.194058e-09
000070 32 dd 0d b5 cf 52 59 b3 0a f8 28 b5 fc 45 5d b6
       -5.2848475e-07 -5.0599564e-08 -6.294582e-07 -3.2972303e-06
000080 7d 45 86 b5 34 b9 d1 b3 8b 85 95 b5 5b 52 38 b4
       -1.0004002e-06 -9.766009e-08 -1.1140231e-06 -1.7166296e-07
000090 30 5b f3 ab 76 4b f6 ab 6d e0 12 2c 9e 95 e6 ab
       -1.7291498e-12 -1.7500296e-12 2.087243e-12 -1.638401e-12
0000a0 07 17 99 2b 2b 37 c9 29 0c 3a db aa 3b 0a d7 aa
       1.0877695e-12 8.935763e-14 -3.8942493e-13 -3.819877e-13
0000b0 2f a7 28 ab 60 93 07 2b 93 de 9b ab 5f af 6f 2b
       -5.9917604e-13 4.816616e-13 -1.1075189e-12 8.5153233e-13
0000c0 c2 b5 20 ab 79 11 f5 2a 33 22 84 aa 2f e7 b6 aa
       -5.709566e-13 4.3532867e-13 -2.347164e-13 -3.249011e-13
0000d0 cf f3 7a 2b 30 00 2c 29 ff 7c 08 2c 57 e1 26 2c
       8.9156194e-13 3.8191835e-14 1.939615e-12 2.3715108e-12
0000e0 19 d7 7f ac 10 49 43 ac c1 db b7 2c 6d ed 46 2b
       -3.6357083e-12 -2.7751725e-12 5.2255704e-12 7.0673225e-13
0000f0 04 74 79 ac 45 4d 9f 2b cd fe 92 2c 1e 87 58 2b
       -3.544943e-12 1.1319076e-12 4.177858e-12 7.692613e-13
000100 36 80 27 2b 5b 85 99 ab e4 49 81 2b f0 19 6a 29
       5.9508247e-13 -1.0908317e-12 9.18651e-13 5.1980935e-14
000110 db ca 18 ab 71 60 7a 2a 0c b0 38 2b 0c aa 8a 2a
       -5.4282766e-13 2.223792e-13 6.5614246e-13 2.4631718e-13
000120 12 48 33 ad 36 5d 23 2d 3e 8b 7c 2d b6 e2 79 2d
       -1.0190975e-11 9.286174e-12 1.43554595e-11 1.4204351e-11
000130 98 48 95 ad 2f b4 5a ad 73 e6 b9 ab 6c a4 9a 2b
       -1.6971577e-11 -1.2431874e-11 -1.3209003e-12 1.0987994e-12
000140 ff ab 51 2d 6b e6 c6 ac 86 34 db ac cb dd 41 2c
       1.1918465e-11 -5.65308e-12 -6.2301856e-12 2.755007e-12
000150 61 54 a0 ac ac 13 c0 ac 6b 96 42 2c a0 c6 c1 2c
       -4.5568414e-12 -5.4591522e-12 2.7652557e-12 5.5074417e-12
000160 cf 46 85 2c 6d 48 99 2c 77 23 e2 ae 0e fc a9 2f
       3.7879487e-12 4.3565624e-12 -1.028359e-10 3.0920017e-10
000170 ba 5d 2e 2e 50 a6 ad 2f 5d 35 1f b0 d8 66 93 2f
       3.9646265e-11 3.158669e-10 -5.7919697e-10 2.681222e-10
000180 a4 45 95 ad e8 97 9b 2f 80 d7 89 2f 0b 61 f0 ad
       -1.6970265e-11 2.8302272e-10 2.5073277e-10 -2.7327937e-11
000190 4a c7 2a 2e 71 cd ef ad b7 fc 42 2e 50 24 bf ae
       3.883053e-11 -2.7262389e-11 4.433495e-11 -8.692125e-11
0001a0 e3 83 56 2e 78 33 66 2e 76 5a 06 ae f0 bc 5c 2e
       4.8775105e-11 5.234166e-11 -3.0548418e-11 5.019002e-11
0001b0 dc 3a 47 a9 f3 e1 dd 2a 30 45 8d a7 da 9d 70 2a
       -4.423793e-14 3.941427e-13 -3.9210375e-15 2.1371048e-13
0001c0 07 e1 09 ab 88 8e a4 2a 86 8a ac a9 11 01 d0 38
       -4.8984466e-13 2.9231153e-13 -7.6623644e-14 9.9184115e-05
0001d0 39 b2 72 aa e0 b1 96 31 0f 0e 8d 32 c3 f0 1a 32
       -2.1555751e-13 4.3857966e-09 1.6420953e-08 9.018723e-09
0001e0 bd d5 86 32 b8 b9 8d b4 74 74 64 ae 4b bc 5d 32
       1.569685e-08 -2.6398425e-07 -5.194463e-11 1.2906706e-08
0001f0 ae cf 93 b2 8c 0f a3 32 74 2e aa b5 99 74 ff b6
       -1.7207494e-08 1.8982767e-08 -1.2679507e-06 -7.613166e-06
000200 70 be 4c b6 97 f1 ba b6 77 e8 cc b7 fd 45 4c b7
       -3.0509218e-06 -5.5713567e-06 -2.4426945e-05 -1.2175643e-05
000210 f5 fe e7 b5 cc ce 13 b7 e5 83 9d b6 c1 51 a1 2d
       -1.7285043e-06 -8.810031e-06 -4.694319e-06 1.8339887e-11
000220 ad b3 06 ae 39 2f 09 ad a8 d7 fa ad b7 2a ec 2d
       -3.0627657e-11 -7.798034e-12 -2.851748e-11 2.6849063e-11
000230 bc 33 cf ad 12 1b 0b 2d 60 00 02 ae 5e 65 24 ad
       -2.355615e-11 7.907246e-12 -2.955891e-11 -9.344829e-12
000240 41 7d 2f 2d de 7c 81 2c 5d 56 0b ab d3 35 90 ac
       9.97541e-12 3.6802636e-12 -4.9502573e-13 -4.098702e-12
000250 a5 7d 58 ad 1b 23 32 2d 0d d2 28 2d 72 83 31 2c
       -1.2306077e-11 1.01259235e-11 9.596335e-12 2.522618e-12
000260 18 0a 79 2a bd 39 57 ac 64 09 94 2c 48 ea 58 ac
       2.2119145e-13 -3.0585389e-12 4.2074556e-12 -3.0825498e-12
000270 30 94 4d ac 64 13 84 2c a7 17 9d ab 6f 09 f5 ab
       -2.9214513e-12 3.7538184e-12 -1.1162086e-12 -1.7410915e-12
000280 a0 c1 2c 2c 00 ec 9c ab dd 35 fa 2c d1 29 0d ad
       2.4550154e-12 -1.114997e-12 7.1114074e-12 -8.024207e-12
000290 0e 70 78 2c de dd 99 2c 6d 57 c8 ac bf 9b d4 ac
       3.5305123e-12 4.3731537e-12 -5.694048e-12 -6.0426937e-12
0002a0 df 6d f9 ac 22 90 f4 2c 66 9c 36 ab 5f 3d 0e 2d
       -7.089204e-12 6.950899e-12 -6.4876435e-13 8.085393e-12
0002b0 49 fc 04 2d 63 cf 9a ac ef 71 f5 2c ed db 1a 2d
       7.55935e-12 -4.399968e-12 6.975968e-12 8.80272e-12
0002c0 3f 5b 89 ac cf 07 ed ac 46 4f ad ac 84 0e ca ac
       -3.9039045e-12 -6.736812e-12 -4.925757e-12 -5.742797e-12
0002d0 3c a4 88 2d da 43 18 ae 6e 64 df 2c be 94 ee ad
       1.5534345e-11 -3.4621063e-11 6.349191e-12 -2.7123522e-11
0002e0 a0 75 50 2e 7e d1 ca ad fc 4f e6 ad 43 84 ac ab
       4.7398196e-11 -2.3057774e-11 -2.6183493e-11 -1.2258045e-12
0002f0 b1 e9 04 ae fa d0 c8 2f e7 21 30 b0 f5 ec d2 2f
       -3.0220885e-11 3.6528275e-10 -6.4076605e-10 3.8367146e-10
000300 36 eb 82 b0 66 f5 37 b0 bc 2c b0 b0 de a5 7a 2f
       -9.525596e-10 -6.6923744e-10 -1.28184e-09 2.2796295e-10
000310 08 80 e2 b0 71 bc a2 2e 46 99 b7 b7 c6 fa 7a b8
       -1.6480053e-09 7.400381e-11 -2.1886673e-05 -5.9838196e-05
000320 e2 50 d2 b7 13 9b 76 b8 f9 04 12 b9 41 8e 9d b8
       -2.5071615e-05 -5.8795395e-05 -0.00013925497 -7.51284e-05
000330 b7 1f 1a b8 e3 37 ca b8 d1 32 41 b8 a6 85 a5 ae
       -3.6745998e-05 -9.64252e-05 -4.6062112e-05 -7.527072e-11
000340 9b 45 b6 2e ed 17 f3 ae 52 3f 4d 2e a0 a6 53 2f
       8.288766e-11 -1.1054611e-10 4.6667843e-11 1.9249535e-10
000350 5f 9d c4 2f 99 5f 07 af 1e 05 a4 2f c4 89 84 ac
       3.576401e-10 -1.2312142e-10 2.9835062e-10 -3.7669607e-12
000360 80 1f 85 b4 0b 12 2e b6 1a ef 72 b5 aa e3 06 b6
       -2.47961e-07 -2.5938523e-06 -9.0499964e-07 -2.0100074e-06
000370 2a c9 27 b7 2f bf 98 b6 69 81 15 b5 bc d7 85 b6
       -1.0000813e-05 -4.5522097e-06 -5.569514e-07 -3.9888237e-06
000380 38 65 b3 b5 bf 2d a9 2b 17 db 97 aa 63 31 63 ab
       -1.3365998e-06 1.2020869e-12 -2.6975012e-13 -8.071514e-13
000390 c3 c0 df ab 01 16 d8 2a fd cd 9d 2b a4 0b 84 2b
       -1.5898605e-12 3.8384576e-13 1.1212694e-12 9.382395e-13
0003a0 39 a5 b8 2b 02 bc 8e 2b b3 2f b7 2f 7c 0c 56 b0
       1.3119845e-12 1.014189e-12 3.3321398e-10 -7.787049e-10
0003b0 d4 14 a5 2f c9 bb 8f b0 4b 16 12 2f 88 1a ec b0
       3.0028124e-10 -1.0457991e-09 1.3286543e-10 -1.7178801e-09
0003c0 75 33 43 2f 5d 2e 00 b1 ff 31 7d af ae 80 11 2d
       1.7753428e-10 -1.8652806e-09 -2.3027978e-10 8.270868e-12
0003d0 cc 55 40 ad 8a b9 80 2c 2a 06 41 ad ad 52 1a 2d
       -1.0932987e-11 3.6585778e-12 -1.09721485e-11 8.772244e-12
0003e0 e6 0e 32 ad c0 7f aa 2c 66 0e 32 ad 80 cd ed 2b
       -1.0121437e-11 4.8458737e-12 -1.0121326e-11 1.6896901e-12
0003f0 46 d0 d9 2b 2c d2 05 2c 4e e9 19 ac 77 79 15 aa
       1.5476585e-12 1.9017106e-12 -2.1872118e-12 -1.3276e-13

conv2.bias f4 [64]
000000 2f 3a c9 b8 ac c0 44 b9 50 82 4e 3e a9 c7 ed bd
       -9.5952644e-05 -0.00018763792 0.20166898 -0.11610348
000010 c6 f5 75 b1 f2 d0 52 33 68 4b dd 3d 27 b5 f8 3d
       -3.5791898e-09 4.908447e-08 0.10805398 0.12143927
000020 ae c8 4d 3e e3 88 1d be 8b bc cd bd bd e3 c4 b6
       0.20096084 -0.1538425 -0.10045727 -5.8677674e-06
000030 ff fb fb 3d df 90 e0 b3 c0 84 0f 3e 7c 25 09 3e
       0.12303924 -1.0457165e-07 0.14015484 0.13393205
000040 36 98 01 3a a6 8f ea b9 db 8d 20 3c 33 8f 61 3e
       0.00049436407 -0.00044738984 0.009799446 0.22027282
000050 a2 80 b8 bc f8 f4 0b be 45 98 92 bd 57 2e c1 bb
       -0.022522274 -0.13667667 -0.07157949 -0.0058954167
000060 1f 93 66 bd 7e 15 82 b0 32 c5 d9 3d 29 d5 e3 bd
       -0.05629265 -9.464853e-10 0.10633315 -0.111246414
000070 f9 b1 57 bb 37 5d 8b 34 f1 d6 2e 31 19 70 8e 32
       -0.0032912476 2.595859e-07 2.5442513e-09 1.6581952e-08
000080 a9 67 b5 3d 20 cb 11 33 24 07 15 be d3 8e c0 bc
       0.08857662 3.3945184e-08 -0.14553505 -0.023505604
000090 89 31 ae b6 73 4a c4 bd e0 54 1b be f1 0c 29 be
       -5.1913707e-06 -0.095845126 -0.15169096 -0.16508843
0000a0 6e a1 11 2e 08 46 ad 3e a6 26 fc bd ad f3 e8 bd
       3.311256e-11 0.33842492 -0.12312059 -0.113746025
0000b0 5f 40 dc 2d f7 94 8c ae 0b 8a 30 3e 6d 46 9c bd
       2.503969e-11 -6.3929244e-11 0.17240159 -0.0763062
0000c0 22 22 87 b6 e1 e0 b2 3d 7a d4 7b bd cf 99 05 be
       -4.027287e-06 0.087342985 -0.06148193 -0.13046955
0000d0 61 44 22 b8 98 24 dd bd a2 54 1a 3e 5f ac 0c be
       -3.8687493e-05 -0.10797995 0.15071347 -0.1373763
0000e0 bb ee 2f 3e 95 29 8e bc 91 01 37 37 d3 1c ec bd
       0.17180912 -0.017353812 1.0908015e-05 -0.11528935
0000f0 0a 77 02 be bb 69 f1 bd 7e 15 41 3e f7 e0 d8 bd
       -0.12740722 -0.117877446 0.18855855 -0.10589784

conv3.weight f4 [128, 64, 3, 3]
000000 82 1c da b4 6d 83 b6 2a 0f 81 06 2b da e8 e7 3a
       -4.0626406e-07 3.242089e-13 4.778547e-13 0.0017693297
000010 fd 8c 04 2b f0 4d a5 2a de b5 4c ba b8 10 08 ab
       4.709148e-13 2.9363968e-13 -0.0007809083 -4.834011e-13
000020 14 57 5b aa c7 95 21 3b 1f 3e 18 2b f5 cb ea aa
       -1.9481319e-13 0.0024655925 5.408746e-13 -4.1708274e-13
000030 b4 42 90 b8 95 28 2c 2b 59 e9 2b 2a 14 f0 45 b3
       -6.8788795e-05 6.1162994e-13 1.526881e-13 -4.6085987e-08
000040 f5 e4 dd aa 0f f5 40 2b 84 e5 fc 32 bb 45 0e b8
       -3.9416357e-13 6.855219e-13 2.9441033e-08 -3.392038e-05
000050 23 6e 88 b8 79 c2 95 b0 3a 71 05 b7 63 81 db b7
       -6.5055e-05 -1.0896449e-09 -7.95378e-06 -2.6167085e-05
000060 c1 c2 e3 ac d3 a1 de b0 0a 14 ea 32 c6 62 53 ae
       -6.47335e-12 -1.6198619e-09 2.7250298e-08 -4.8063574e-11
000070 06 15 f5 2d 1d ec be ad 00 94 42 ae bd df 95 2e
       2.7862612e-11 -2.1705355e-11 -4.4241943e-11 6.8154794e-11
000080 8a d6 2b ae 85 7c c2 2d c6 db 6c ad 87 96 50 2d
       -3.9071447e-11 2.2110544e-11 -1.3463846e-11 1.1856855e-11
000090 d5 3a 7b b9 a7 24 22 2a 6a 94 32 aa bc 18 17 b7
       -0.00023959142 1.4401207e-13 -1.5861067e-13 -9.00606e-06
0000a0 9a 35 8d aa 07 97 db aa 46 52 30 b7 b5 a5 42 aa
       -2.5083825e-13 -3.900701e-13 -1.0509573e-05 -1.7288153e-13
0000b0 56 7d db 2a 83 03 e2 39 88 5c 04 3a 58 d4 a2 33
       3.8989184e-13 0.00043108696 0.00050491886 7.582338e-08
0000c0 27 a5 d3 b9 fe dc a8 b7 2b 79 e3 38 7c 36 88 b6
       -0.00040368104 -2.0130068e-05 0.00010846773 -4.0594587e-06
0000d0 1c 09 91 35 47 50 9c 39 67 d9 03 b8 09 df fa b9
       1.0805993e-06 0.0002981445 -3.1435306e-05 -0.0004784989
0000e0 08 54 5c b9 19 06 f4 b7 1c a7 10 ba ac 31 83 b9
       -0.00021012139 -2.9089906e-05 -0.00055180653 -0.00025023276
0000f0 3c 8e 81 32 24 e9 47 b8 a6 ea 84 b7 33 39 b0 2c
       1.5082257e-08 -4.7662426e-05 -1.5844893e-05 5.0085712e-12
000100 b6 e5 8a ad f6 0b 29 2d c8 02 b6 ad a0 8e a5 2d
       -1.5790796e-11 9.609194e-12 -2.069224e-11 1.8821666e-11
000110 ab e5 e1 ac 83 9a 0a 2d d3 cc a7 2b e9 07 80 ac
       -6.420383e-12 7.8787e-12 1.1922914e-12 -3.638857e-12
000120 ae a0 09 2e 23 05 4a b1 5d 4d 59 32 2e 9f 3c ae
       3.1292906e-11 -2.9397789e-09 1.2648653e-08 -4.288763e-11
000130 a6 17 86 ad fc 23 46 b1 d8 0e 6f 2d f1 57 f9 ad
       -1.5244538e-11 -2.8833247e-09 1.3588873e-11 -2.8347076e-11
000140 c1 26 1a 2e ec 1b 44 2d a8 4c d4 ad 86 7c a6 2d
       3.5049966e-11 1.114751e-11 -2.4135652e-11 1.8927315e-11
000150 e8 57 63 2c 36 0f b7 ad 0c 9b 6d 2d ed fd 3b ad
       3.2307438e-12 -2.0811446e-11 1.3506318e-11 -1.0686102e-11
000160 7f 36 77 2d ee 03 5b ad 0b 8b 2a ae f9 2a 84 af
       1.4052425e-11 -1.2449581e-11 -3.877702e-11 -2.4041194e-10
000170 b8 2d 24 2d 8f 17 e2 ae a8 b8 83 ae e8 3d 89 ae
       9.332472e-12 -1.0281475e-10 -5.989992e-11 -6.2410355e-11
000180 0f 42 fa 2c 91 9c 5b 2e ed 3c 65 ac 99 33 10 b6
       7.1127613e-12 4.9933894e-11 -3.2576678e-12 -2.1487706e-06
000190 12 a3 36 2b 25 42 86 2b b2 29 64 34 8a cf fb 2a
       6.4885694e-13 9.539631e-13 2.1249323e-07 4.4730566e-13
0001a0 93 00 72 2b d5 9f 64 37 88 6a 54 2b f1 43 eb 2a
       8.597647e-13 1.3627073e-05 7.546537e-13 4.179153e-13
0001b0 91 05 dc 2c 7b 9a 03 ad 17 49 21 ad 62 6f 08 ac
       6.253394e-12 -7.480789e-12 -9.16802e-12 -1.9388592e-12
0001c0 a6 91 53 2c c3 ac 96 ab a2 ee c0 ab 24 1d 23 2c
       3.0065755e-12 -1.0706092e-12 -1.3708654e-12 2.317987e-12
0001d0 84 eb 2d 29 e0 6e f4 2a aa 32 85 aa 90 82 a7 2a
       3.8617994e-14 4.3420042e-13 -2.36607e-13 2.9755755e-13
0001e0 cb 77 58 39 6f d0 ec 2a 13 c0 73 aa d1 5c a3 35
       0.00020643992 4.206665e-13 -2.1649375e-13 1.217146e-06
0001f0 a2 bc bd b9 a5 3e 42 38 02 f8 1f 31 58 68 99 32
       -0.00036189432 4.6311547e-05 2.3278521e-09 1.7858994e-08
000200 09 c6 bb b0 24 38 a3 32 6a 2c 88 b3 df cc e1 31
       -1.3662326e-09 1.9001227e-08 -6.3410724e-08 6.571653e-09
000210 b0 18 10 b1 c6 53 08 32 69 f9 86 b0 5d 92 04 2f
       -2.0968791e-09 7.93529e-09 -9.82067e-10 1.2057329e-10
000220 e9 ba 0d b1 2d a5 d6 2f ae 6f 14 b1 cf c8 e2 31
       -2.0624447e-09 3.9043738e-10 -2.1600317e-09 6.600295e-09
000230 71 69 a2 b0 97 73 03 30 2f cb 9f b0 4e b4 9f 2f
       -1.181702e-09 4.7821785e-10 -1.1626521e-09 2.9050046e-10
000240 64 10 b6 34 02 ca 75 35 1e 17 a5 b4 3d 7c a9 33
       3.3912067e-07 9.156357e-07 -3.0750465e-07 7.8922746e-08
000250 8f 5a 9d b4 6b 27 9e 33 1b 3b 1f 35 e1 f8 d3 34
       -2.930942e-07 7.3646184e-08 5.9318126e-07 3.9482896e-07
000260 21 b0 3d b9 47 a7 1e 37 11 de 1e 2b 44 54 f9 aa
       -0.00018090058 9.456481e-06 5.6441055e-13 -4.4289756e-13
000270 0d 1a 08 38 c5 95 31 2b de d4 5b ab 8b bd 57 b4
       3.244919e-05 6.309088e-13 -7.809984e-13 -2.009239e-07
000280 50 6a 9b a9 4d f3 19 ab 1b cf 35 b5 79 54 91 33
       -6.901825e-14 -5.4694167e-13 -6.772913e-07 6.767454e-08
000290 5e ab a7 ba 89 95 36 b5 51 4e 49 33 a3 3b 52 ba
       -0.001279216 -6.8017886e-07 4.6870188e-08 -0.0008019751
0002a0 7e 77 3e bb 12 81 e2 32 d6 13 91 b7 51 5b 66 32
       -0.0029062922 2.6368557e-08 -1.7294584e-05 1.3408525e-08
0002b0 0e f6 9d b7 43 9e 45 b8 e9 32 ed 2f a9 49 64 b6
       -1.8830437e-05 -4.7115853e-05 4.3146223e-10 -3.4017523e-06
0002c0 df cd 81 b7 f7 d0 b6 2d f4 d2 ec 2f 46 96 dc 31
       -1.5473865e-05 2.0783803e-11 4.307804e-10 6.419927e-09
0002d0 f1 a0 fc a9 01 be 0a ab e1 b5 14 2a 40 96 ab 39
       -1.1218967e-13 -4.929113e-13 1.3208143e-13 0.00032727607
0002e0 e1 93 44 37 d9 e8 57 b6 19 95 6b b4 a2 f4 a7 39
       1.1716941e-05 -3.2173032e-06 -2.1940322e-07 0.00032034988
0002f0 c7 a2 3a b9 aa af 06 2c 2e 49 2d ab b1 27 97 ab
       -0.00017798982 1.9140058e-12 -6.1563504e-13 -1.0740212e-12
000300 53 7e 07 ac 53 d5 9c aa 3f 24 cc 2b f4 4b 3e 2b
       -1.9254778e-12 -2.785919e-13 1.4505132e-12 6.7606966e-13
000310 ed e9 6b 2b 9e ff 6a ab dc 35 89 ba 83 cf cb bb
       8.381341e-13 -8.348824e-13 -0.0010468322 -0.0062198057
000320 6d dc e2 bb a7 c3 d3 b9 80 3b a3 bb c3 48 c7 bb
       -0.0069232495 -0.00040390829 -0.004981458 -0.006081672
000330 97 3b 40 b1 43 5f d7 b9 c8 07 84 ba 86 eb 23 bb
       -2.797355e-09 -0.0004107897 -0.001007312 -0.002501221
000340 91 f5 28 bc 03 5b 3c bc 3a d4 a0 ba 33 46 0d bc
       -0.010312454 -0.011496308 -0.001227028 -0.008622694
000350 e8 d2 29 bc 69 f1 d3 b2 9c 56 a8 ba d4 18 2f bb
       -0.010365225 -2.4673414e-08 -0.0012843194 -0.002671768
000360 66 23 a7 b9 9c 48 16 b7 43 f5 63 b8 ad d1 7b 2a
       -0.00031879096 -8.957602e-06 -5.4349435e-05 2.2366024e-13
000370 ca bf 0f aa 00 56 f7 38 b7 6d a3 2a 8b 16 b6 2a
       -1.2767492e-13 0.000117938966 2.9030746e-13 3.2345337e-13
000380 91 77 b1 39 49 8f 05 3b de ac 37 38 72 ba 0f 3b
       0.00033849155 0.0020379594 4.3791595e-05 0.0021931198
000390 59 15 e0 b5 48 7d 95 b8 92 4e 3f b5 61 e2 31 39
       -1.6695514e-06 -7.128209e-05 -7.126738e-07 0.00016964368
0003a0 b3 e0 56 b6 b3 31 7b 35 32 a8 75 2d 5b af 44 ad
       -3.2019277e-06 9.357711e-07 1.39639845e-11 -1.1180247e-11
0003b0 b6 55 76 29 15 fe fd ac 85 f9 0f ad 3e 42 82 2d
       5.4697315e-14 -7.2189013e-12 -8.184013e-12 1.4808706e-11
0003c0 17 ac 9a ac 22 22 84 2d aa fd 6e ad 59 3a 88 ac
       -4.396049e-12 1.502182e-11 -1.3585058e-11 -3.8718304e-12
0003d0 85 b2 5c 2e 89 bd 67 ad 75 0f 1e 2e ba de 1c ae
       5.0180766e-11 -1.3172915e-11 3.593877e-11 -3.5668114e-11
0003e0 2c 22 0a 2e a4 fb 66 ac ca 42 28 ac 2b e3 30 ac
       3.1407918e-11 -3.2824654e-12 -2.3911311e-12 -2.5137208e-12
0003f0 e3 11 cd b9 49 98 ef b8 03 55 9e b8 a3 4a 09 38
       -0.00039113974 -0.000114247734 -7.549862e-05 3.2732856e-05

conv3.bias f4 [128]
000000 d3 e4 d4 bc 6b cb 00 b8 0e 51 0d 3c 89 8e 29 b8
       -0.025988018 -3.0707026e-05 0.008625282 -4.0425486e-05
000010 ad e3 24 3e 23 4a 2b 3e 9d b1 21 be 9c 78 82 ba
       0.16102476 0.167275 -0.1579041 -0.0009954157
000020 0a 7d da bd 49 c6 7b bb 42 f4 0c bc a9 5c d3 bd
       -0.106683806 -0.0038417748 -0.0086031575 -0.10320408
000030 0d 42 81 bd 72 24 15 b5 b0 44 f0 bd 96 71 03 bc
       -0.06311426 -5.555986e-07 -0.11731851 -0.0080226865
000040 6d 3e ff 32 b0 b0 a3 b8 42 4f 1a ae f2 ff d6 bd
       2.9714295e-08 -7.805356e-05 -3.508594e-11 -0.104980364
000050 87 1d 08 be a9 28 d9 bd 13 4b b5 bd 37 74 cf bc
       -0.13292514 -0.106034584 -0.0885221 -0.02532397
000060 c8 bd 89 30 a3 56 d2 ba bf 50 d5 ba 07 ed b7 b9
       1.0022001e-09 -0.0016047548 -0.0016274675 -0.0003508108
000070 c7 58 14 3e 0f ea df 2c d5 17 b8 bd fe e4 f8 bd
       0.14486991 6.364027e-12 -0.089889206 -0.12153052
000080 7e c5 c0 bd ce ee c1 bd 49 93 47 3e c3 ef 12 3e
       -0.09412669 -0.094693765 0.19489779 0.14349274
000090 0d d9 c0 bd 3c c6 c6 bd a5 a1 7b 30 37 55 c0 bd
       -0.09416399 -0.09705779 9.154298e-10 -0.093912534
0000a0 f1 ef e2 af 9d 5f 00 2e f0 17 a7 30 4c b6 1f 3e
       -4.127965e-10 2.9188752e-11 1.2157653e-09 0.15596884
0000b0 8c 5f 22 be fa 8e b3 2d d9 e5 43 b5 86 f0 1a b8
       -0.1585676 2.0413438e-11 -7.2977633e-07 -3.6940466e-05
0000c0 59 89 fc 3b 60 12 a5 ae 6d 4c 03 ae 85 ef 11 33
       0.007706803 -7.506595e-11 -2.985383e-11 3.3978285e-08
0000d0 63 a6 5b bd a3 59 fa bd 42 cd b9 bd c3 ab 34 30
       -0.053625476 -0.12224128 -0.09072353 6.5727707e-10
0000e0 32 c1 5c b8 db 39 02 b1 25 31 25 b1 d1 63 a7 2f
       -5.2632015e-05 -1.8950377e-09 -2.4038596e-09 3.0448047e-10
0000f0 a5 87 a2 2f 20 3f 3c 30 a7 6e ea bb 4f 70 ce bd
       2.956401e-10 6.848371e-10 -0.007154304 -0.10080015
000100 fd 7c 87 bd 8f 83 e4 bd 44 2e 8a ba 47 d5 6f b1
       -0.066156365 -0.11157905 -0.0010542353 -3.4900312e-09
000110 4f 94 06 bd 3b 3a 5d b9 9c 90 c5 bd c0 be d1 b6
       -0.03285628 -0.00021097895 -0.09646723 -6.2508916e-06
000120 93 f3 1f be 84 38 3b b1 ae e3 9d bd d3 f9 63 3e
       -0.1562026 -2.7244207e-09 -0.07709442 0.22263269
000130 0b f7 bb bd b5 c7 aa ba 97 a3 9c bc d3 e7 70 bb
       -0.09177979 -0.0013029488 -0.019120974 -0.0036759272
000140 d6 2f 9b 3d 23 f0 c1 b9 a4 9e c1 bb 2e 25 1e bb
       0.07577483 -0.00036990744 -0.005908804 -0.0024131048
000150 21 66 c1 bd d6 b0 b9 bd 8b 3e 3f 3e 62 38 f3 af
       -0.09443308 -0.09066932 0.18676202 -4.4241505e-10
000160 95 68 75 b6 bd 3c a5 ae c9 5f 13 be 62 bf c7 bd
       -3.656872e-06 -7.5141206e-11 -0.14392008 -0.097533
000170 96 04 40 3e 89 1e 4b 3e 3b fd 17 bb 8f 08 01 bd
       0.1875175 0.19835867 -0.0023191709 -0.031502303
000180 a4 62 b6 b9 4f c2 12 3c a9 d0 e9 32 1c a2 97 bd
       -0.00034787238 0.00895746 2.7219658e-08 -0.07403967
000190 8f e9 64 b8 84 50 e9 bd 90 4a 01 33 a5 ab ad ac
       -5.4576954e-05 -0.1139231 3.0102967e-08 -4.936012e-12
0001a0 73 33 94 ba b3 59 b1 bd 18 7c f7 b2 94 24 dd ba
       -0.0011306837 -0.08659687 -2.8811016e-08 -0.0016871863
0001b0 49 48 dc bd 12 42 16 32 78 cc 07 bb d4 d0 fe bd
       -0.10755975 8.746172e-09 -0.0020721238 -0.124421746
0001c0 35 b2 06 be ae 77 5c b8 f3 46 42 b1 df b2 6f 32
       -0.13153918 -5.2563548e-05 -2.8271046e-09 1.39523015e-08
0001d0 29 26 a1 b9 48 92 37 be dc 04 90 ae 64 09 81 bd
       -0.00030736745 -0.17926896 -6.549225e-11 -0.06300619
0001e0 34 ef e5 bd e5 ac bb bd 0c c7 88 3d 75 0e cf bc
       -0.11227265 -0.091638364 0.0667859 -0.025275448
0001f0 d2 a8 13 be fd 09 04 be d3 0a 2b 2d f1 01 d3 bd
       -0.14419869 -0.12894435 9.722628e-12 -0.10303105

act_conv1.weight f4 [4, 128, 1, 1]
000000 27 e6 df 2a 5d a4 e8 bd a0 8a 88 bd 16 4e 01 b9
       3.9772458e-13 -0.11359475 -0.066670656 -0.00012331488
000010 5b fe eb bc 09 5a 27 bd d8 fb c4 bd 54 98 53 ab
       -0.02880781 -0.04085735 -0.09618348 -7.5173656e-13
000020 9b 1a 0b bd b6 36 e2 ba b4 c2 28 3a 35 1b e9 bb
       -0.03396092 -0.0017258737 0.00064377044 -0.007113839
000030 9e 5d c2 bd 5e 78 c7 bd 2e 11 d5 bb 64 09 58 bc
       -0.09490512 -0.09739755 -0.006502292 -0.013185833
000040 69 ec cb bd cb 64 c1 bd e3 f9 0c ac 9b 60 e5 bd
       -0.09957201 -0.09443053 -2.0033912e-12 -0.11200067
000050 90 d8 d8 bd cf 8b d8 bd e1 30 80 2a 57 71 9c bc
       -0.10588181 -0.105735414 2.2771284e-13 -0.019097013
000060 a0 e7 77 2a 3f 02 9c 39 cd a8 2a 36 e0 d4 f6 ab
       2.2018368e-13 0.00029756312 2.543023e-06 -1.7538436e-12
000070 a4 05 3d bd da 07 cc bd 36 65 31 bc 5a 4c d3 bd
       -0.046147957 -0.09962435 -0.010827353 -0.10317297
000080 4b a5 b9 bb 5b e3 1d ba cb d8 0b bd 35 a6 11 bd
       -0.0056654564 -0.00060229533 -0.034142297 -0.035558898
000090 2c 5f 5f bc d8 f1 22 bd 69 e7 8e 36 a8 9b b3 bc
       -0.013633531 -0.03978142 4.2588695e-06 -0.021924809
0000a0 8d bb 63 2a 0a 70 69 bd da 0f 14 36 b8 c2 42 bd
       2.022672e-13 -0.056991614 2.2062945e-06 -0.04754898
0000b0 5c dd d8 bd b1 c9 ad bd 5e cb b4 bd d5 46 d6 2a
       -0.10589096 -0.08485735 -0.08827852 3.8063186e-13
0000c0 51 93 de ba 26 9d 8b b7 d0 f2 75 b6 d8 e9 ae b9
       -0.001698116 -1.664327e-05 -3.664918e-06 -0.00033362093
0000d0 37 77 ef bd d7 fd dd bd 5d 87 90 ba 7a 67 9a ba
       -0.1169266 -0.10839432 -0.001102667 -0.0011780106
0000e0 ac 80 e3 bd b1 c3 08 ac 62 bf 51 b6 fd f9 52 2b
       -0.111085266 -1.9435393e-12 -3.1254826e-06 7.4953916e-13
0000f0 21 40 2c aa b4 0d 95 bd 88 59 96 bc 96 db d3 bb
       -1.5298918e-13 -0.07278004 -0.018353239 -0.0064653857
000100 e1 27 63 38 0b c6 df bd d7 ec f9 bd 99 fc ff 28
       5.4158158e-05 -0.109264456 -0.12203377 2.8420234e-14
000110 97 d5 e0 37 2e ff be bd d8 bc 2e bc 08 73 9e bd
       2.6802341e-05 -0.093260154 -0.010665141 -0.07736784
000120 50 e3 e1 bd 5c 8f c5 bd 33 6c f5 bd fb b1 8d bd
       -0.110296845 -0.09646484 -0.11983528 -0.06918713
000130 45 4f d4 bc f2 ad cc ab 2a 3f d2 bd fe bc ca bd
       -0.025916705 -1.4543351e-12 -0.10265954 -0.09899329
000140 96 4e 42 2c 33 a5 09 b9 44 c2 52 ac 83 a3 99 2d
       2.7612682e-12 -0.0001312688 -2.9950634e-12 1.74667e-11
000150 f9 8d 03 bd 94 2d e1 bc 26 0d 54 bd 11 bd 27 ac
       -0.032117818 -0.027487554 -0.05177035 -2.383708e-12
000160 5e 1d af bd eb 1d bb 2b 10 de d8 bd b8 a9 22 bd
       -0.08550523 1.3295453e-12 -0.1058923 -0.039712638
000170 5b 00 bb bc c3 65 64 bd 5c d3 29 b8 da 8c d9 bd
       -0.022827318 -0.05576111 -4.0489584e-05 -0.106225684
000180 58 98 62 2a 97 51 2a b6 5c 7a 1d bc c7 0c b4 bc
       2.0125687e-13 -2.5379466e-06 -0.009611692 -0.021978749
000190 b1 0c 31 2c e9 d9 12 bb 62 13 04 2b f3 b2 d9 2a
       2.5160258e-12 -0.0022407717 4.692272e-13 3.8671114e-13
0001a0 3d 13 51 ac b0 42 ba a9 4c 41 45 3a 68 ad 1f 2a
       -2.9711366e-12 -8.271628e-14 0.00075246836 1.4182199e-13
0001b0 d8 51 01 bc 55 f4 d9 bd a0 f1 22 ba 6e 4b dc bd
       -0.007893048 -0.10642306 -0.00062158145 -0.107565746
0001c0 7a 3a e3 bd f8 aa 7e bd 16 89 97 2b c4 81 c8 bd
       -0.11095138 -0.062174767 1.0767244e-12 -0.09790376
0001d0 8c 08 58 38 60 99 d4 bd c9 a9 c8 bd 40 53 03 2c
       5.1506373e-05 -0.103808165 -0.09798009 1.8662433e-12
0001e0 17 6d dd bd 18 7c e9 bc a4 9d cf bc f8 84 b8 a8
       -0.10811823 -0.028501555 -0.025343724 -2.048577e-14
0001f0 fc 3c d8 bd 66 48 85 ab c4 91 cb 2c 18 86 22 bc
       -0.10558507 -9.470313e-13 5.7857902e-12 -0.009919666
000200 9c 2e 9d b6 05 21 28 bd 81 52 a8 bc 1a b0 b6 b8
       -4.6843907e-06 -0.041047115 -0.020547153 -8.711238e-05
000210 c3 62 60 bc a5 b1 11 bd f0 81 2e bd 29 a3 58 ab
       -0.013695422 -0.035569806 -0.042604387 -7.6965046e-13
000220 ce ab 75 bc fc 1b cb 2f 02 76 28 aa 14 45 a7 bb
       -0.014994575 3.694537e-10 -1.496234e-13 -0.0051046703
000230 22 30 09 bd 15 a7 55 bd 7a e7 3d bc 81 df d9 2b
       -0.03349317 -0.052161295 -0.011590833 1.5480812e-12
000240 e7 0e e7 bb bd 31 e7 bc 1f cc 90 ab 32 40 6c bd
       -0.007051337 -0.02822196 -1.028847e-12 -0.05767841
000250 79 b9 1f bd 74 32 32 bd 46 f1 58 ad c9 41 af 35
       -0.03899524 -0.043505147 -1.2331752e-11 1.3057662e-06
000260 26 2d bf 2b 9d d7 5f 38 0f 35 77 2a e4 27 b2 2b
       1.3583897e-12 5.336815e-05 2.1956415e-13 1.2658733e-12
000270 6e 59 c5 bc 7b b0 29 bd d9 ea 2d bc ce cd 3f bd
       -0.024090495 -0.04142807 -0.010615074 -0.04682713
000280 8c ed 05 bc a0 46 cc ba 6f e1 97 bc 37 6d 8c bc
       -0.008174311 -0.0015585013 -0.018540112 -0.017141921
000290 cf 96 29 bc cb 08 a1 bc 26 ec c4 ab 86 1a 26 bc
       -0.010350897 -0.019657513 -1.3992182e-12 -0.01013816
0002a0 c4 42 b4 ab c9 a9 0b bb 4a 57 60 ab 5b c2 a9 bc
       -1.28083e-12 -0.0021310917 -7.9701924e-13 -0.020722559
0002b0 59 39 15 bd 45 67 86 bc 80 1c 13 bc 82 75 06 2b
       -0.036431644 -0.016406665 -0.008978963 4.776944e-13
0002c0 9e 69 12 2b 8e 38 fd 2b 82 b5 63 ab 74 dd 54 a9
       5.2016193e-13 1.7992428e-12 -8.0898493e-13 -4.7265536e-14
0002d0 a9 d8 69 bd 69 ea ac bd 04 63 a6 bb 05 01 4b 2a
       -0.05709139 -0.08443148 -0.0050777216 1.8030376e-13
0002e0 94 3a 30 bc 19 e3 4f bc 4c 2a 82 2c 14 0e 24 ab
       -0.010756154 -0.012688422 3.699518e-12 -5.828404e-13
0002f0 71 1c 62 ab 99 ac 34 bc 7b 28 95 2a 7d 30 09 bc
       -8.03308e-13 -0.011027479 2.6495806e-13 -0.008373377
000300 3d 91 f9 a7 67 30 80 bd cd 2e 94 bc 21 27 89 b7
       -6.926885e-15 -0.06259232 -0.018088723 -1.6349893e-05
000310 af 20 ac 3a 7a ee e4 bc 7d 4c 03 bc cf ba b4 bc
       0.0013132299 -0.027945746 -0.008013842 -0.022061734
000320 d4 99 18 bd c8 2b a6 bc 6c 86 4b bd 7d a8 15 bd
       -0.037256077 -0.020284548 -0.04968874 -0.036537636
000330 f2 96 64 bc 2c 67 21 2c 7c c5 84 2b 83 ae 50 ac
       -0.013952004 2.2936748e-12 9.433977e-13 -2.9655451e-12
000340 b3 21 5d ab 01 dc d9 2a c5 14 c6 ba 20 9a d9 3a
       -7.856174e-13 3.8699602e-13 -0.0015112391 0.0016601719
000350 b9 00 7a bc 9f b7 4c bc 1d 1a 29 bd 8f 6e 22 ab
       -0.015258961 -0.012494951 -0.04128467 -5.770739e-13
000360 af 9b d9 bc 29 81 72 2b 52 b7 40 bd 83 32 96 bc
       -0.026563494 8.6154917e-13 -0.047049828 -0.018334633
000370 f6 16 6e bc 9e cf f0 bc 15 a3 d3 b9 2d c2 79 bb
       -0.0145318415 -0.029395875 -0.00040366562 -0.0038110123
000380 78 67 26 2c c6 c6 de ac 5a b2 bc bc dc 7b 68 bc
       2.3647456e-12 -6.3316878e-12 -0.023034263 -0.014189687
000390 08 13 3b ac cd ce ce bb 8e 3e 41 2b 5f 12 35 aa
       -2.6584863e-12 -0.0063112737 6.8654186e-13 -1.6082403e-13
0003a0 d6 52 d7 b9 17 25 78 ab 08 05 00 2c 1d 1c 71 ac
       -0.00041069713 -8.815877e-13 1.8192687e-12 -3.4263766e-12
0003b0 82 d9 0c bc 09 f7 e9 bc f8 e3 94 32 6b 91 96 bd
       -0.00859678 -0.028560178 1.7333136e-08 -0.07351955
0003c0 37 f1 30 bd c9 c5 04 37 f6 6f 79 ab 79 0c 26 bd
       -0.04319879 7.913864e-06 -8.861795e-13 -0.04053924
0003d0 c1 63 90 ab 8f 48 e0 bc a9 25 28 bd 34 60 d0 aa
       -1.0259503e-12 -0.027378349 -0.04105154 -3.7014977e-13
0003e0 7e e6 12 bd 65 97 5b bc 74 bc 87 bc ac 77 c0 aa
       -0.035864346 -0.0134027945 -0.016569354 -3.418909e-13
0003f0 1c 64 35 bd 28 c2 b1 ab 1a ca bc 39 71 ea b7 bb
       -0.044284925 -1.2630496e-12 0.00036008732 -0.0056126644

act_conv1.bias f4 [4]
000000 98 33 e9 bd 56 22 ed bc e7 c9 4b 3d 46 8f b5 be
       -0.11386794 -0.028947037 0.049753096 -0.3546087

act_fc1.weight f4 [49, 196]
000000 66 19 82 aa 64 02 94 aa 53 c8 53 ab b4 ee f8 2a
       -2.3110263e-13 -2.629174e-13 -7.5240264e-13 4.4219283e-13
000010 d5 77 86 2a 5e 83 4f 2a 44 5c f5 2a 26 90 15 ab
       2.3886332e-13 1.843087e-13 4.3584765e-13 -5.313548e-13
000020 50 14 85 2b 64 36 2c 2b d6 4e 7a 2b 26 49 5a ab
       9.455856e-13 6.118216e-13 8.892725e-13 -7.755067e-13
000030 f3 69 8a 2b 7d 5d 77 ab 08 03 17 2b a8 74 65 ab
       9.834897e-13 -8.788177e-13 5.3650183e-13 -8.1519036e-13
000040 49 5a 2b 2b 27 40 7a 2b 0f 63 47 2a eb 1f 8c ab
       6.08767e-13 8.890687e-13 1.7709118e-13 -9.956457e-13
000050 fe 83 4b 2a 7a 69 0a 2b 54 66 ce aa d9 16 a1 2b
       1.8075816e-13 4.9173827e-13 -3.6663955e-13 1.144608e-12
000060 59 c1 b0 2b b7 48 1f 2a d3 60 4e 2b 58 ab 85 ab
       1.2559217e-12 1.4147265e-13 7.332027e-13 -9.497776e-13
000070 84 6b b5 aa 19 02 52 ab d8 78 8f ab ce 94 50 ab
       -3.2226663e-13 -7.46099e-13 -1.0194302e-12 -7.410295e-13
000080 61 40 3d ab a3 d2 98 2b bc 3f d7 a9 07 e8 15 2b
       -6.723563e-13 1.0858713e-12 -9.558974e-14 5.3257436e-13
000090 a7 31 4e ab d2 c0 14 aa aa d3 60 ab 5d fa 7d 2b
       -7.325481e-13 -1.3211939e-13 -7.987453e-13 9.0231105e-13
0000a0 0b 84 28 ab c5 2b 53 2a 72 1f bb aa e8 37 a3 aa
       -5.9868836e-13 1.875575e-13 -3.3239692e-13 -2.899341e-13
0000b0 39 43 04 2b 2f a9 10 2a 93 15 0e 2b 74 ce a2 2a
       4.698911e-13 1.2848467e-13 5.0478474e-13 2.8920236e-13
0000c0 d4 24 e2 2a f1 83 fb 2a d5 01 f4 ac a7 4f 7e ac
       4.017122e-13 4.467811e-13 -6.9351005e-12 -3.6139787e-12
0000d0 20 ce 02 ad ff 10 ab 2b 94 44 26 ac 2b 27 aa 2c
       -7.435413e-12 1.2154998e-12 -2.3628087e-12 4.836039e-12
0000e0 fd 88 d4 2b 1b d0 1b 2d eb 07 0b ad e4 2a ee ab
       1.5101528e-12 8.856939e-12 -7.902993e-12 -1.6922822e-12
0000f0 9b d6 39 ad 97 98 82 2b 64 b5 e7 2c ab a4 f5 2c
       -1.05636845e-11 9.279408e-13 6.5855533e-12 6.9816006e-12
000100 85 44 3b ad d0 70 8b 2c d8 bf 86 ac b9 2d 1f 2d
       -1.0644934e-11 3.9631423e-12 -3.829808e-12 9.048256e-12
000110 b5 fb 02 ad 1e 1c 32 2b 4d a8 f9 2c 7f 78 08 ad
       -7.445535e-12 6.3277324e-13 7.095691e-12 -7.7574605e-12
000120 d5 a4 4e ac 15 e1 2d ad e6 ee 65 2c aa 73 39 ad
       -2.936586e-12 -9.88389e-12 3.2675473e-12 -1.0541715e-11
000130 21 8f b9 2c b0 6f e3 2b da ae 18 ad c2 a0 3f 2d
       5.2739067e-12 1.616032e-12 -8.6790245e-12 1.0892788e-11
000140 1d 59 cc 2c 53 7c 4f 2d 56 a2 07 2b da 97 c6 ac
       5.8079223e-12 1.1794193e-11 4.818692e-13 -5.6443574e-12
000150 8b a2 fa ab 71 b8 22 ad c8 35 21 2c 39 b5 9b ac
       -1.7808683e-12 -9.249588e-12 2.290933e-12 -4.4254847e-12
000160 05 0c f9 2c b8 39 aa ac 9c 40 de ac 11 49 4c 2c
       7.07834e-12 -4.8380987e-12 -6.3167926e-12 2.9030704e-12
000170 33 10 a8 ac e9 52 2c aa c8 40 b4 ac a9 b6 94 2c
       -4.7766457e-12 -1.5305434e-13 -5.1231e-12 4.2266923e-12
000180 41 ca 54 2c 3a 50 6e ac 6d 45 0e af a4 50 b0 2d
       3.0239285e-12 -3.3866369e-12 -1.293949e-10 2.0044695e-11
000190 4c e1 35 33 dc c0 14 33 1d f4 1b 33 f5 22 a0 af
       4.2347253e-08 3.463434e-08 3.631077e-08 -2.912867e-10
0001a0 f5 78 9f 2e db 34 a7 b1 e1 3f 10 b7 23 84 28 b8
       7.251969e-11 -4.8663487e-09 -8.597942e-06 -4.0177383e-05
0001b0 ff d8 5a b8 f5 4f 22 b8 d7 b5 e6 b6 20 99 d5 b0
       -5.2177344e-05 -3.8698276e-05 -6.875703e-06 -1.554131e-09
0001c0 3a 2a 1d 32 6e 43 0f b8 ef 43 fe b8 8a 9c 1c b9
       9.148204e-09 -3.4156656e-05 -0.000121243174 -0.00014935635
0001d0 15 f7 f8 b8 54 c7 de b7 e0 ea 6d b0 fd b0 97 32
       -0.00011871584 -2.6557282e-05 -8.6553875e-10 1.7659199e-08
0001e0 21 c6 28 b8 06 19 25 b9 b4 51 4b b9 18 89 1b b9
       -4.0238843e-05 -0.00015744948 -0.00019390025 -0.00014833023
0001f0 1a d9 11 b8 73 29 29 31 a3 3a 3e 31 82 16 d6 b7
       -3.4772886e-05 2.4616298e-09 2.768197e-09 -2.5521269e-05
000200 91 46 dd b8 97 d3 04 b9 c7 16 d8 b8 f7 83 b9 b7
       -0.00010551245 -0.00012667324 -0.00010303925 -2.211517e-05
000210 da ce 07 b1 98 84 2d af 8d 34 d7 b5 d4 9d 58 b7
       -1.9762667e-09 -1.5781365e-10 -1.6034043e-06 -1.29113505e-05
000220 7d e6 a0 b7 38 bb 5d b7 90 ef de b5 4c 02 f7 2f
       -1.9180816e-05 -1.3216217e-05 -1.6610011e-06 4.493067e-10
000230 5e 55 f0 2c c2 53 ea 2d be 2a 84 2f 96 e0 1e b0
       6.830688e-12 2.6639916e-11 2.404103e-10 -5.779922e-10
000240 8d 0e 9c 2f 72 89 0a ae ed cb d5 2d c9 bd 7a 3a
       2.8386574e-10 -3.1499643e-11 2.4305858e-11 0.00095650234
000250 9a af e8 3b 5c f1 22 3c b1 6d 23 3c 6b 3c f1 3b
       0.0071010115 0.00994524 0.009974883 0.0073619387
000260 01 77 79 3a 45 f1 06 b7 92 5e bd 3c a0 73 60 3d
       0.0009516329 -8.043197e-06 0.023116384 0.05479777
000270 f3 61 8a 3d 59 40 8d 3d a0 ed 7d 3d 76 cf 14 3d
       0.067569636 0.06897039 0.061994195 0.036330663
000280 e8 89 1b 39 bb ff 29 3d 67 d1 a2 3d c0 b4 c3 3d
       0.00014833326 0.04150365 0.079500966 0.0955596
000290 92 b0 c8 3d 40 47 b9 3d 82 e5 7b 3d 23 41 94 3b
       0.09799303 0.09046793 0.061498173 0.0045243665
0002a0 76 bf 3d 3d 67 73 af 3d 21 61 d2 3d 0c 72 d8 3d
       0.04632517 0.08566933 0.10272432 0.10568628
0002b0 09 a5 c8 3d 9f bc 8b 3d 1e 22 e8 3b d5 a6 28 3d
       0.09797103 0.06823086 0.007084145 0.04117473
0002c0 ab 53 a5 3d 01 94 c8 3d 8a a6 cf 3d ca 01 c1 3d
       0.08072599 0.097938545 0.10139187 0.09424169
0002d0 23 05 86 3d 5e 50 e2 3b 6b b5 bf 3c e5 08 79 3d
       0.065439485 0.006906553 0.023401937 0.060799498
0002e0 61 d3 a0 3d d5 7b a8 3d 7f 02 9c 3d 1d e7 50 3d
       0.07852817 0.08226744 0.076176636 0.051001657
0002f0 2d 6d 96 3b 10 75 4f 3a ca db 80 3c 6a f8 df 3c
       0.0045906515 0.0007913867 0.015729804 0.027340133
000300 d1 59 f9 3c 4b a2 df 3c a2 e7 74 3c 25 84 99 39
       0.030438336 0.027299067 0.014947804 0.0002928089
000310 19 da 2c 2d 40 81 8e ae 45 69 b7 2f eb 3b 9c af
       9.8254955e-12 -6.480372e-11 3.3362305e-10 -2.841881e-10
000320 f1 82 35 2f f0 fe a3 ae f9 a6 71 2d df a8 7a 2e
       1.6508374e-10 -7.457668e-11 1.3736339e-11 5.6993407e-11
000330 ae 17 7c 32 15 aa 67 b5 e9 ae 20 b6 24 aa c1 b5
       1.4673715e-08 -8.630171e-07 -2.394367e-06 -1.4429138e-06
000340 e6 ea 00 b2 f7 cf 59 ae 0c ed 0a af ce bf 33 b4
       -7.50399e-09 -4.9524797e-11 -1.2635243e-10 -1.6740452e-07
000350 34 b8 16 b7 93 22 95 b7 71 7b 55 b7 a9 99 c2 b5
       -8.983585e-06 -1.7778284e-05 -1.272453e-05 -1.4498847e-06
000360 5d 52 f4 2d d7 f8 f6 ae 33 7b d2 b4 3d 14 5f b7
       2.7776165e-11 -1.1230988e-10 -3.9205187e-07 -1.3296548e-05
000370 4a ef d4 b7 7e 7a 97 b7 38 00 22 b6 c7 d7 06 b0
       -2.5383797e-05 -1.8057643e-05 -2.4140008e-06 -4.9055554e-10
000380 ee e5 ea ae c3 5d fe b3 79 48 ff b6 4f ac 72 b7
       -1.0681932e-10 -1.1844852e-07 -7.608029e-06 -1.4464443e-05
000390 5d f2 22 b7 c6 45 7b b5 9d e5 9c 2f fa f7 40 2d
       -9.712382e-06 -9.360632e-07 2.8539385e-10 1.0968998e-11
0003a0 38 58 b6 31 77 e3 8e b4 6e d6 53 b5 72 32 c0 b4
       5.3069265e-09 -2.6615064e-07 -7.891566e-07 -3.579949e-07
0003b0 a0 a7 a0 32 fe 92 0e af 55 85 4f ad 6c e9 23 2e
       1.8702679e-08 -1.2967047e-10 -1.1796193e-11 3.726923e-11
0003c0 1a 03 f2 ae c3 af 74 2e 51 29 d5 ae 66 87 70 2e
       -1.1005437e-10 5.5635285e-11 -9.693458e-11 5.468994e-11
0003d0 52 f1 19 ad 49 a3 be 2c ca af ff 2d c8 f0 9a ae
       -8.750627e-12 5.418253e-12 2.906821e-11 -7.0458805e-11
0003e0 40 88 84 ae 51 d9 8a ae c1 68 ce 2d 26 f4 6e 2d
       -6.026868e-11 -6.3141166e-11 2.3466009e-11 1.35829455e-11
0003f0 57 e4 b9 ad 61 54 f2 af f7 ee bc 30 e1 b0 0a b1
       -2.1133468e-11 -4.4079498e-10 1.3746718e-09 -2.0182187e-09

act_fc1.bias f4 [49]
000000 e3 ed cb bf b0 17 db 3e 5b c6 95 bd 42 0a 6d 3e
       -1.5931972 0.4279151 -0.07313224 0.23148444
000010 b4 c5 33 be 49 67 f5 3e 64 d9 ca bf 28 88 ec 3e
       -0.17555887 0.47930363 -1.5847592 0.4619763
000020 28 10 c3 bf c2 b9 de 3e 84 6c ce bf 71 92 e9 3e
       -1.5239305 0.43501097 -1.6126866 0.45619538
000030 75 e8 c0 bf da d5 e5 3e 8d 45 0d bd 20 85 38 3f
       -1.507094 0.44889718 -0.034490157 0.7207813
000040 b7 2b 88 3e b5 2a d0 3e b0 9a b1 3e bf ab 03 3f
       0.26595852 0.40657583 0.3468833 0.5143394
000050 55 55 5d be e6 c0 9d 3e b0 9a d0 bf 6d 2e e7 3e
       -0.21614583 0.30811232 -1.6297207 0.45152608
000060 dc 1a a4 bf 32 15 b8 3e ce 97 ce bf 13 b7 63 3e
       -1.2820697 0.3595367 -1.6140077 0.22237806
000070 41 dc dd bd 06 53 f8 3e 13 27 c3 3e b9 50 bc 3e
       -0.10833026 0.48500842 0.3811575 0.36780336
000080 52 5f f6 3e 46 82 03 3f c9 6f 02 be 95 88 1e 3f
       0.481196 0.51370656 -0.12737955 0.6192716
000090 9d 7d c2 bf 9f ff 25 3f 23 f2 cd bf e1 78 ef 3e
       -1.5194584 0.6484317 -1.6089519 0.4677191
0000a0 8f 7d c2 bf d1 ad e6 3e ca fa c9 bf 9c b8 cc 3e
       -1.5194567 0.45054486 -1.577966 0.39984596
0000b0 c7 88 46 be b8 36 ab 3e 6c 0a 0b be 1f a8 16 3f
       -0.19388114 0.33440185 -0.13578194 0.5885028
0000c0 c4 3c ca bf
       -1.5799794
